<?xml version="1.0"?>
<net name="main_graph" version="11">
	<layers>
		<layer id="0" name="input" type="Parameter" version="opset1">
			<data shape="1,20,3" element_type="f32" />
			<output>
				<port id="0" precision="FP32" names="input">
					<dim>1</dim>
					<dim>20</dim>
					<dim>3</dim>
				</port>
			</output>
		</layer>
		<layer id="1" name="Constant_3344" type="Const" version="opset1">
			<data element_type="f32" shape="1, 1, 3" offset="0" size="12" />
			<output>
				<port id="0" precision="FP32">
					<dim>1</dim>
					<dim>1</dim>
					<dim>3</dim>
				</port>
			</output>
		</layer>
		<layer id="2" name="Constant_3339" type="Const" version="opset1">
			<data element_type="f32" shape="1, 1, 256" offset="12" size="1024" />
			<output>
				<port id="0" precision="FP32">
					<dim>1</dim>
					<dim>1</dim>
					<dim>256</dim>
				</port>
			</output>
		</layer>
		<layer id="3" name="Constant_3336" type="Const" version="opset1">
			<data element_type="f32" shape="1, 1, 512" offset="1036" size="2048" />
			<output>
				<port id="0" precision="FP32">
					<dim>1</dim>
					<dim>1</dim>
					<dim>512</dim>
				</port>
			</output>
		</layer>
		<layer id="4" name="Constant_3331" type="Const" version="opset1">
			<data element_type="f32" shape="1, 1, 256" offset="3084" size="1024" />
			<output>
				<port id="0" precision="FP32">
					<dim>1</dim>
					<dim>1</dim>
					<dim>256</dim>
				</port>
			</output>
		</layer>
		<layer id="5" name="Constant_3328" type="Const" version="opset1">
			<data element_type="f32" shape="1, 1, 512" offset="4108" size="2048" />
			<output>
				<port id="0" precision="FP32">
					<dim>1</dim>
					<dim>1</dim>
					<dim>512</dim>
				</port>
			</output>
		</layer>
		<layer id="6" name="Constant_3249" type="Const" version="opset1">
			<data element_type="f32" shape="1, 1, 256" offset="6156" size="1024" />
			<output>
				<port id="0" precision="FP32">
					<dim>1</dim>
					<dim>1</dim>
					<dim>256</dim>
				</port>
			</output>
		</layer>
		<layer id="7" name="Transpose_2585" type="Const" version="opset1">
			<data element_type="f32" shape="256, 3" offset="7180" size="3072" />
			<output>
				<port id="0" precision="FP32">
					<dim>256</dim>
					<dim>3</dim>
				</port>
			</output>
		</layer>
		<layer id="8" name="/model/encoders/fc1/MatMul" type="MatMul" version="opset1">
			<data transpose_a="false" transpose_b="true" />
			<input>
				<port id="0" precision="FP32">
					<dim>1</dim>
					<dim>20</dim>
					<dim>3</dim>
				</port>
				<port id="1" precision="FP32">
					<dim>256</dim>
					<dim>3</dim>
				</port>
			</input>
			<output>
				<port id="2" precision="FP32" names="/model/encoders/fc1/MatMul_output_0">
					<dim>1</dim>
					<dim>20</dim>
					<dim>256</dim>
				</port>
			</output>
		</layer>
		<layer id="9" name="/model/encoders/fc1/Add" type="Add" version="opset1">
			<data auto_broadcast="numpy" />
			<input>
				<port id="0" precision="FP32">
					<dim>1</dim>
					<dim>1</dim>
					<dim>256</dim>
				</port>
				<port id="1" precision="FP32">
					<dim>1</dim>
					<dim>20</dim>
					<dim>256</dim>
				</port>
			</input>
			<output>
				<port id="2" precision="FP32" names="/model/encoders/fc1/Add_output_0">
					<dim>1</dim>
					<dim>20</dim>
					<dim>256</dim>
				</port>
			</output>
		</layer>
		<layer id="10" name="Constant_3263" type="Const" version="opset1">
			<data element_type="f32" shape="1, 1, 256" offset="10252" size="1024" />
			<output>
				<port id="0" precision="FP32">
					<dim>1</dim>
					<dim>1</dim>
					<dim>256</dim>
				</port>
			</output>
		</layer>
		<layer id="11" name="Constant_3250" type="Const" version="opset1">
			<data element_type="f32" shape="1, 1, 1024" offset="11276" size="4096" />
			<output>
				<port id="0" precision="FP32">
					<dim>1</dim>
					<dim>1</dim>
					<dim>1024</dim>
				</port>
			</output>
		</layer>
		<layer id="12" name="Transpose_2592" type="Const" version="opset1">
			<data element_type="f32" shape="1024, 256" offset="15372" size="1048576" />
			<output>
				<port id="0" precision="FP32">
					<dim>1024</dim>
					<dim>256</dim>
				</port>
			</output>
		</layer>
		<layer id="13" name="/model/encoders/layers.0/self_attn/wq/linear/MatMul" type="MatMul" version="opset1">
			<data transpose_a="false" transpose_b="true" />
			<input>
				<port id="0" precision="FP32">
					<dim>1</dim>
					<dim>20</dim>
					<dim>256</dim>
				</port>
				<port id="1" precision="FP32">
					<dim>1024</dim>
					<dim>256</dim>
				</port>
			</input>
			<output>
				<port id="2" precision="FP32" names="/model/encoders/layers.0/self_attn/wq/linear/MatMul_output_0">
					<dim>1</dim>
					<dim>20</dim>
					<dim>1024</dim>
				</port>
			</output>
		</layer>
		<layer id="14" name="/model/encoders/layers.0/self_attn/wq/linear/Add" type="Add" version="opset1">
			<data auto_broadcast="numpy" />
			<input>
				<port id="0" precision="FP32">
					<dim>1</dim>
					<dim>1</dim>
					<dim>1024</dim>
				</port>
				<port id="1" precision="FP32">
					<dim>1</dim>
					<dim>20</dim>
					<dim>1024</dim>
				</port>
			</input>
			<output>
				<port id="2" precision="FP32" names="/model/encoders/layers.0/self_attn/wq/linear/Add_output_0">
					<dim>1</dim>
					<dim>20</dim>
					<dim>1024</dim>
				</port>
			</output>
		</layer>
		<layer id="15" name="Constant_145" type="Const" version="opset1">
			<data element_type="i64" shape="1" offset="1063948" size="8" />
			<output>
				<port id="0" precision="I64">
					<dim>1</dim>
				</port>
			</output>
		</layer>
		<layer id="16" name="/model/encoders/layers.0/self_attn/wq/norm/Div" type="MVN" version="opset6">
			<data eps="9.9999997473787516e-06" normalize_variance="true" eps_mode="INSIDE_SQRT" />
			<input>
				<port id="0" precision="FP32">
					<dim>1</dim>
					<dim>20</dim>
					<dim>1024</dim>
				</port>
				<port id="1" precision="I64">
					<dim>1</dim>
				</port>
			</input>
			<output>
				<port id="2" precision="FP32" names="/model/encoders/layers.0/self_attn/wq/norm/Div_output_0">
					<dim>1</dim>
					<dim>20</dim>
					<dim>1024</dim>
				</port>
			</output>
		</layer>
		<layer id="17" name="Constant_3251" type="Const" version="opset1">
			<data element_type="f32" shape="1, 1, 1024" offset="1063956" size="4096" />
			<output>
				<port id="0" precision="FP32">
					<dim>1</dim>
					<dim>1</dim>
					<dim>1024</dim>
				</port>
			</output>
		</layer>
		<layer id="18" name="/model/encoders/layers.0/self_attn/wq/norm/Mul" type="Multiply" version="opset1">
			<data auto_broadcast="numpy" />
			<input>
				<port id="0" precision="FP32">
					<dim>1</dim>
					<dim>20</dim>
					<dim>1024</dim>
				</port>
				<port id="1" precision="FP32">
					<dim>1</dim>
					<dim>1</dim>
					<dim>1024</dim>
				</port>
			</input>
			<output>
				<port id="2" precision="FP32" names="/model/encoders/layers.0/self_attn/wq/norm/Mul_output_0">
					<dim>1</dim>
					<dim>20</dim>
					<dim>1024</dim>
				</port>
			</output>
		</layer>
		<layer id="19" name="Constant_3252" type="Const" version="opset1">
			<data element_type="f32" shape="1, 1, 1024" offset="1068052" size="4096" />
			<output>
				<port id="0" precision="FP32">
					<dim>1</dim>
					<dim>1</dim>
					<dim>1024</dim>
				</port>
			</output>
		</layer>
		<layer id="20" name="/model/encoders/layers.0/self_attn/wq/norm/Add_1" type="Add" version="opset1">
			<data auto_broadcast="numpy" />
			<input>
				<port id="0" precision="FP32">
					<dim>1</dim>
					<dim>20</dim>
					<dim>1024</dim>
				</port>
				<port id="1" precision="FP32">
					<dim>1</dim>
					<dim>1</dim>
					<dim>1024</dim>
				</port>
			</input>
			<output>
				<port id="2" precision="FP32" names="/model/encoders/layers.0/self_attn/wq/norm/Add_1_output_0">
					<dim>1</dim>
					<dim>20</dim>
					<dim>1024</dim>
				</port>
			</output>
		</layer>
		<layer id="21" name="/model/encoders/layers.0/self_attn/Constant_1" type="Const" version="opset1">
			<data element_type="i64" shape="4" offset="1072148" size="32" />
			<output>
				<port id="0" precision="I64" names="/model/encoders/layers.0/self_attn/Constant_1_output_0">
					<dim>4</dim>
				</port>
			</output>
		</layer>
		<layer id="22" name="/model/encoders/layers.0/self_attn/Reshape" type="Reshape" version="opset1">
			<data special_zero="true" />
			<input>
				<port id="0" precision="FP32">
					<dim>1</dim>
					<dim>20</dim>
					<dim>1024</dim>
				</port>
				<port id="1" precision="I64">
					<dim>4</dim>
				</port>
			</input>
			<output>
				<port id="2" precision="FP32" names="/model/encoders/layers.0/self_attn/Reshape_output_0">
					<dim>1</dim>
					<dim>20</dim>
					<dim>8</dim>
					<dim>128</dim>
				</port>
			</output>
		</layer>
		<layer id="23" name="Constant_163" type="Const" version="opset1">
			<data element_type="i64" shape="4" offset="1072180" size="32" />
			<output>
				<port id="0" precision="I64">
					<dim>4</dim>
				</port>
			</output>
		</layer>
		<layer id="24" name="/model/encoders/layers.0/self_attn/Transpose" type="Transpose" version="opset1">
			<input>
				<port id="0" precision="FP32">
					<dim>1</dim>
					<dim>20</dim>
					<dim>8</dim>
					<dim>128</dim>
				</port>
				<port id="1" precision="I64">
					<dim>4</dim>
				</port>
			</input>
			<output>
				<port id="2" precision="FP32" names="/model/encoders/layers.0/self_attn/Transpose_output_0">
					<dim>1</dim>
					<dim>8</dim>
					<dim>20</dim>
					<dim>128</dim>
				</port>
			</output>
		</layer>
		<layer id="25" name="Constant_3253" type="Const" version="opset1">
			<data element_type="f32" shape="1, 1, 1024" offset="1072212" size="4096" />
			<output>
				<port id="0" precision="FP32">
					<dim>1</dim>
					<dim>1</dim>
					<dim>1024</dim>
				</port>
			</output>
		</layer>
		<layer id="26" name="Transpose_2608" type="Const" version="opset1">
			<data element_type="f32" shape="1024, 256" offset="1076308" size="1048576" />
			<output>
				<port id="0" precision="FP32">
					<dim>1024</dim>
					<dim>256</dim>
				</port>
			</output>
		</layer>
		<layer id="27" name="/model/encoders/layers.0/self_attn/wk/linear/MatMul" type="MatMul" version="opset1">
			<data transpose_a="false" transpose_b="true" />
			<input>
				<port id="0" precision="FP32">
					<dim>1</dim>
					<dim>20</dim>
					<dim>256</dim>
				</port>
				<port id="1" precision="FP32">
					<dim>1024</dim>
					<dim>256</dim>
				</port>
			</input>
			<output>
				<port id="2" precision="FP32" names="/model/encoders/layers.0/self_attn/wk/linear/MatMul_output_0">
					<dim>1</dim>
					<dim>20</dim>
					<dim>1024</dim>
				</port>
			</output>
		</layer>
		<layer id="28" name="/model/encoders/layers.0/self_attn/wk/linear/Add" type="Add" version="opset1">
			<data auto_broadcast="numpy" />
			<input>
				<port id="0" precision="FP32">
					<dim>1</dim>
					<dim>1</dim>
					<dim>1024</dim>
				</port>
				<port id="1" precision="FP32">
					<dim>1</dim>
					<dim>20</dim>
					<dim>1024</dim>
				</port>
			</input>
			<output>
				<port id="2" precision="FP32" names="/model/encoders/layers.0/self_attn/wk/linear/Add_output_0">
					<dim>1</dim>
					<dim>20</dim>
					<dim>1024</dim>
				</port>
			</output>
		</layer>
		<layer id="29" name="Constant_167" type="Const" version="opset1">
			<data element_type="i64" shape="1" offset="1063948" size="8" />
			<output>
				<port id="0" precision="I64">
					<dim>1</dim>
				</port>
			</output>
		</layer>
		<layer id="30" name="/model/encoders/layers.0/self_attn/wk/norm/Div" type="MVN" version="opset6">
			<data eps="9.9999997473787516e-06" normalize_variance="true" eps_mode="INSIDE_SQRT" />
			<input>
				<port id="0" precision="FP32">
					<dim>1</dim>
					<dim>20</dim>
					<dim>1024</dim>
				</port>
				<port id="1" precision="I64">
					<dim>1</dim>
				</port>
			</input>
			<output>
				<port id="2" precision="FP32" names="/model/encoders/layers.0/self_attn/wk/norm/Div_output_0">
					<dim>1</dim>
					<dim>20</dim>
					<dim>1024</dim>
				</port>
			</output>
		</layer>
		<layer id="31" name="Constant_3254" type="Const" version="opset1">
			<data element_type="f32" shape="1, 1, 1024" offset="2124884" size="4096" />
			<output>
				<port id="0" precision="FP32">
					<dim>1</dim>
					<dim>1</dim>
					<dim>1024</dim>
				</port>
			</output>
		</layer>
		<layer id="32" name="/model/encoders/layers.0/self_attn/wk/norm/Mul" type="Multiply" version="opset1">
			<data auto_broadcast="numpy" />
			<input>
				<port id="0" precision="FP32">
					<dim>1</dim>
					<dim>20</dim>
					<dim>1024</dim>
				</port>
				<port id="1" precision="FP32">
					<dim>1</dim>
					<dim>1</dim>
					<dim>1024</dim>
				</port>
			</input>
			<output>
				<port id="2" precision="FP32" names="/model/encoders/layers.0/self_attn/wk/norm/Mul_output_0">
					<dim>1</dim>
					<dim>20</dim>
					<dim>1024</dim>
				</port>
			</output>
		</layer>
		<layer id="33" name="Constant_3255" type="Const" version="opset1">
			<data element_type="f32" shape="1, 1, 1024" offset="2128980" size="4096" />
			<output>
				<port id="0" precision="FP32">
					<dim>1</dim>
					<dim>1</dim>
					<dim>1024</dim>
				</port>
			</output>
		</layer>
		<layer id="34" name="/model/encoders/layers.0/self_attn/wk/norm/Add_1" type="Add" version="opset1">
			<data auto_broadcast="numpy" />
			<input>
				<port id="0" precision="FP32">
					<dim>1</dim>
					<dim>20</dim>
					<dim>1024</dim>
				</port>
				<port id="1" precision="FP32">
					<dim>1</dim>
					<dim>1</dim>
					<dim>1024</dim>
				</port>
			</input>
			<output>
				<port id="2" precision="FP32" names="/model/encoders/layers.0/self_attn/wk/norm/Add_1_output_0">
					<dim>1</dim>
					<dim>20</dim>
					<dim>1024</dim>
				</port>
			</output>
		</layer>
		<layer id="35" name="/model/encoders/layers.0/self_attn/Constant_2" type="Const" version="opset1">
			<data element_type="i64" shape="4" offset="1072148" size="32" />
			<output>
				<port id="0" precision="I64" names="/model/encoders/layers.0/self_attn/Constant_2_output_0">
					<dim>4</dim>
				</port>
			</output>
		</layer>
		<layer id="36" name="/model/encoders/layers.0/self_attn/Reshape_1" type="Reshape" version="opset1">
			<data special_zero="true" />
			<input>
				<port id="0" precision="FP32">
					<dim>1</dim>
					<dim>20</dim>
					<dim>1024</dim>
				</port>
				<port id="1" precision="I64">
					<dim>4</dim>
				</port>
			</input>
			<output>
				<port id="2" precision="FP32" names="/model/encoders/layers.0/self_attn/Reshape_1_output_0">
					<dim>1</dim>
					<dim>20</dim>
					<dim>8</dim>
					<dim>128</dim>
				</port>
			</output>
		</layer>
		<layer id="37" name="Constant_200" type="Const" version="opset1">
			<data element_type="i64" shape="4" offset="2133076" size="32" />
			<output>
				<port id="0" precision="I64">
					<dim>4</dim>
				</port>
			</output>
		</layer>
		<layer id="38" name="/model/encoders/layers.0/self_attn/Transpose_2" type="Transpose" version="opset1">
			<input>
				<port id="0" precision="FP32">
					<dim>1</dim>
					<dim>20</dim>
					<dim>8</dim>
					<dim>128</dim>
				</port>
				<port id="1" precision="I64">
					<dim>4</dim>
				</port>
			</input>
			<output>
				<port id="2" precision="FP32" names="/model/encoders/layers.0/self_attn/Transpose_2_output_0">
					<dim>1</dim>
					<dim>8</dim>
					<dim>128</dim>
					<dim>20</dim>
				</port>
			</output>
		</layer>
		<layer id="39" name="Constant_3256" type="Const" version="opset1">
			<data element_type="f32" shape="1, 1, 1, 1" offset="2133108" size="4" />
			<output>
				<port id="0" precision="FP32">
					<dim>1</dim>
					<dim>1</dim>
					<dim>1</dim>
					<dim>1</dim>
				</port>
			</output>
		</layer>
		<layer id="40" name="Multiply_3188" type="Multiply" version="opset1">
			<data auto_broadcast="numpy" />
			<input>
				<port id="0" precision="FP32">
					<dim>1</dim>
					<dim>8</dim>
					<dim>128</dim>
					<dim>20</dim>
				</port>
				<port id="1" precision="FP32">
					<dim>1</dim>
					<dim>1</dim>
					<dim>1</dim>
					<dim>1</dim>
				</port>
			</input>
			<output>
				<port id="2" precision="FP32">
					<dim>1</dim>
					<dim>8</dim>
					<dim>128</dim>
					<dim>20</dim>
				</port>
			</output>
		</layer>
		<layer id="41" name="/model/encoders/layers.0/self_attn/Div" type="MatMul" version="opset1">
			<data transpose_a="false" transpose_b="false" />
			<input>
				<port id="0" precision="FP32">
					<dim>1</dim>
					<dim>8</dim>
					<dim>20</dim>
					<dim>128</dim>
				</port>
				<port id="1" precision="FP32">
					<dim>1</dim>
					<dim>8</dim>
					<dim>128</dim>
					<dim>20</dim>
				</port>
			</input>
			<output>
				<port id="2" precision="FP32" names="/model/encoders/layers.0/self_attn/Div_output_0">
					<dim>1</dim>
					<dim>8</dim>
					<dim>20</dim>
					<dim>20</dim>
				</port>
			</output>
		</layer>
		<layer id="42" name="/model/encoders/layers.0/self_attn/Softmax" type="SoftMax" version="opset8">
			<data axis="-1" />
			<input>
				<port id="0" precision="FP32">
					<dim>1</dim>
					<dim>8</dim>
					<dim>20</dim>
					<dim>20</dim>
				</port>
			</input>
			<output>
				<port id="1" precision="FP32" names="/model/encoders/layers.0/self_attn/Softmax_output_0">
					<dim>1</dim>
					<dim>8</dim>
					<dim>20</dim>
					<dim>20</dim>
				</port>
			</output>
		</layer>
		<layer id="43" name="Constant_3257" type="Const" version="opset1">
			<data element_type="f32" shape="1, 1, 256" offset="2133112" size="1024" />
			<output>
				<port id="0" precision="FP32">
					<dim>1</dim>
					<dim>1</dim>
					<dim>256</dim>
				</port>
			</output>
		</layer>
		<layer id="44" name="Transpose_2624" type="Const" version="opset1">
			<data element_type="f32" shape="256, 256" offset="2134136" size="262144" />
			<output>
				<port id="0" precision="FP32">
					<dim>256</dim>
					<dim>256</dim>
				</port>
			</output>
		</layer>
		<layer id="45" name="/model/encoders/layers.0/self_attn/wv/linear/MatMul" type="MatMul" version="opset1">
			<data transpose_a="false" transpose_b="true" />
			<input>
				<port id="0" precision="FP32">
					<dim>1</dim>
					<dim>20</dim>
					<dim>256</dim>
				</port>
				<port id="1" precision="FP32">
					<dim>256</dim>
					<dim>256</dim>
				</port>
			</input>
			<output>
				<port id="2" precision="FP32" names="/model/encoders/layers.0/self_attn/wv/linear/MatMul_output_0">
					<dim>1</dim>
					<dim>20</dim>
					<dim>256</dim>
				</port>
			</output>
		</layer>
		<layer id="46" name="/model/encoders/layers.0/self_attn/wv/linear/Add" type="Add" version="opset1">
			<data auto_broadcast="numpy" />
			<input>
				<port id="0" precision="FP32">
					<dim>1</dim>
					<dim>1</dim>
					<dim>256</dim>
				</port>
				<port id="1" precision="FP32">
					<dim>1</dim>
					<dim>20</dim>
					<dim>256</dim>
				</port>
			</input>
			<output>
				<port id="2" precision="FP32" names="/model/encoders/layers.0/self_attn/wv/linear/Add_output_0">
					<dim>1</dim>
					<dim>20</dim>
					<dim>256</dim>
				</port>
			</output>
		</layer>
		<layer id="47" name="Constant_183" type="Const" version="opset1">
			<data element_type="i64" shape="1" offset="1063948" size="8" />
			<output>
				<port id="0" precision="I64">
					<dim>1</dim>
				</port>
			</output>
		</layer>
		<layer id="48" name="/model/encoders/layers.0/self_attn/wv/norm/Div" type="MVN" version="opset6">
			<data eps="9.9999997473787516e-06" normalize_variance="true" eps_mode="INSIDE_SQRT" />
			<input>
				<port id="0" precision="FP32">
					<dim>1</dim>
					<dim>20</dim>
					<dim>256</dim>
				</port>
				<port id="1" precision="I64">
					<dim>1</dim>
				</port>
			</input>
			<output>
				<port id="2" precision="FP32" names="/model/encoders/layers.0/self_attn/wv/norm/Div_output_0">
					<dim>1</dim>
					<dim>20</dim>
					<dim>256</dim>
				</port>
			</output>
		</layer>
		<layer id="49" name="Constant_3258" type="Const" version="opset1">
			<data element_type="f32" shape="1, 1, 256" offset="2396280" size="1024" />
			<output>
				<port id="0" precision="FP32">
					<dim>1</dim>
					<dim>1</dim>
					<dim>256</dim>
				</port>
			</output>
		</layer>
		<layer id="50" name="/model/encoders/layers.0/self_attn/wv/norm/Mul" type="Multiply" version="opset1">
			<data auto_broadcast="numpy" />
			<input>
				<port id="0" precision="FP32">
					<dim>1</dim>
					<dim>20</dim>
					<dim>256</dim>
				</port>
				<port id="1" precision="FP32">
					<dim>1</dim>
					<dim>1</dim>
					<dim>256</dim>
				</port>
			</input>
			<output>
				<port id="2" precision="FP32" names="/model/encoders/layers.0/self_attn/wv/norm/Mul_output_0">
					<dim>1</dim>
					<dim>20</dim>
					<dim>256</dim>
				</port>
			</output>
		</layer>
		<layer id="51" name="Constant_3259" type="Const" version="opset1">
			<data element_type="f32" shape="1, 1, 256" offset="2397304" size="1024" />
			<output>
				<port id="0" precision="FP32">
					<dim>1</dim>
					<dim>1</dim>
					<dim>256</dim>
				</port>
			</output>
		</layer>
		<layer id="52" name="/model/encoders/layers.0/self_attn/wv/norm/Add_1" type="Add" version="opset1">
			<data auto_broadcast="numpy" />
			<input>
				<port id="0" precision="FP32">
					<dim>1</dim>
					<dim>20</dim>
					<dim>256</dim>
				</port>
				<port id="1" precision="FP32">
					<dim>1</dim>
					<dim>1</dim>
					<dim>256</dim>
				</port>
			</input>
			<output>
				<port id="2" precision="FP32" names="/model/encoders/layers.0/self_attn/wv/norm/Add_1_output_0">
					<dim>1</dim>
					<dim>20</dim>
					<dim>256</dim>
				</port>
			</output>
		</layer>
		<layer id="53" name="/model/encoders/layers.0/self_attn/Constant_5" type="Const" version="opset1">
			<data element_type="i64" shape="4" offset="2398328" size="32" />
			<output>
				<port id="0" precision="I64" names="/model/encoders/layers.0/self_attn/Constant_5_output_0">
					<dim>4</dim>
				</port>
			</output>
		</layer>
		<layer id="54" name="/model/encoders/layers.0/self_attn/Reshape_2" type="Reshape" version="opset1">
			<data special_zero="true" />
			<input>
				<port id="0" precision="FP32">
					<dim>1</dim>
					<dim>20</dim>
					<dim>256</dim>
				</port>
				<port id="1" precision="I64">
					<dim>4</dim>
				</port>
			</input>
			<output>
				<port id="2" precision="FP32" names="/model/encoders/layers.0/self_attn/Reshape_2_output_0">
					<dim>1</dim>
					<dim>20</dim>
					<dim>8</dim>
					<dim>32</dim>
				</port>
			</output>
		</layer>
		<layer id="55" name="Constant_198" type="Const" version="opset1">
			<data element_type="i64" shape="4" offset="1072180" size="32" />
			<output>
				<port id="0" precision="I64">
					<dim>4</dim>
				</port>
			</output>
		</layer>
		<layer id="56" name="/model/encoders/layers.0/self_attn/Transpose_1" type="Transpose" version="opset1">
			<input>
				<port id="0" precision="FP32">
					<dim>1</dim>
					<dim>20</dim>
					<dim>8</dim>
					<dim>32</dim>
				</port>
				<port id="1" precision="I64">
					<dim>4</dim>
				</port>
			</input>
			<output>
				<port id="2" precision="FP32" names="/model/encoders/layers.0/self_attn/Transpose_1_output_0">
					<dim>1</dim>
					<dim>8</dim>
					<dim>20</dim>
					<dim>32</dim>
				</port>
			</output>
		</layer>
		<layer id="57" name="/model/encoders/layers.0/self_attn/MatMul_1" type="MatMul" version="opset1">
			<data transpose_a="false" transpose_b="false" />
			<input>
				<port id="0" precision="FP32">
					<dim>1</dim>
					<dim>8</dim>
					<dim>20</dim>
					<dim>20</dim>
				</port>
				<port id="1" precision="FP32">
					<dim>1</dim>
					<dim>8</dim>
					<dim>20</dim>
					<dim>32</dim>
				</port>
			</input>
			<output>
				<port id="2" precision="FP32" names="/model/encoders/layers.0/self_attn/MatMul_1_output_0">
					<dim>1</dim>
					<dim>8</dim>
					<dim>20</dim>
					<dim>32</dim>
				</port>
			</output>
		</layer>
		<layer id="58" name="Constant_207" type="Const" version="opset1">
			<data element_type="i64" shape="4" offset="1072180" size="32" />
			<output>
				<port id="0" precision="I64">
					<dim>4</dim>
				</port>
			</output>
		</layer>
		<layer id="59" name="/model/encoders/layers.0/self_attn/Transpose_3" type="Transpose" version="opset1">
			<input>
				<port id="0" precision="FP32">
					<dim>1</dim>
					<dim>8</dim>
					<dim>20</dim>
					<dim>32</dim>
				</port>
				<port id="1" precision="I64">
					<dim>4</dim>
				</port>
			</input>
			<output>
				<port id="2" precision="FP32" names="/model/encoders/layers.0/self_attn/Transpose_3_output_0">
					<dim>1</dim>
					<dim>20</dim>
					<dim>8</dim>
					<dim>32</dim>
				</port>
			</output>
		</layer>
		<layer id="60" name="/model/encoders/layers.0/self_attn/Constant_7" type="Const" version="opset1">
			<data element_type="i64" shape="3" offset="2398360" size="24" />
			<output>
				<port id="0" precision="I64" names="/model/encoders/layers.0/self_attn/Constant_7_output_0">
					<dim>3</dim>
				</port>
			</output>
		</layer>
		<layer id="61" name="/model/encoders/layers.0/self_attn/Reshape_3" type="Reshape" version="opset1">
			<data special_zero="true" />
			<input>
				<port id="0" precision="FP32">
					<dim>1</dim>
					<dim>20</dim>
					<dim>8</dim>
					<dim>32</dim>
				</port>
				<port id="1" precision="I64">
					<dim>3</dim>
				</port>
			</input>
			<output>
				<port id="2" precision="FP32" names="/model/encoders/layers.0/self_attn/Reshape_3_output_0">
					<dim>1</dim>
					<dim>20</dim>
					<dim>256</dim>
				</port>
			</output>
		</layer>
		<layer id="62" name="Constant_3260" type="Const" version="opset1">
			<data element_type="f32" shape="1, 1, 256" offset="2398384" size="1024" />
			<output>
				<port id="0" precision="FP32">
					<dim>1</dim>
					<dim>1</dim>
					<dim>256</dim>
				</port>
			</output>
		</layer>
		<layer id="63" name="/model/encoders/layers.0/self_attn/Constant_8" type="Const" version="opset1">
			<data element_type="i64" shape="3" offset="2398360" size="24" />
			<output>
				<port id="0" precision="I64" names="/model/encoders/layers.0/self_attn/Constant_8_output_0">
					<dim>3</dim>
				</port>
			</output>
		</layer>
		<layer id="64" name="/model/encoders/layers.0/self_attn/Reshape_4" type="Reshape" version="opset1">
			<data special_zero="true" />
			<input>
				<port id="0" precision="FP32">
					<dim>1</dim>
					<dim>8</dim>
					<dim>20</dim>
					<dim>32</dim>
				</port>
				<port id="1" precision="I64">
					<dim>3</dim>
				</port>
			</input>
			<output>
				<port id="2" precision="FP32" names="/model/encoders/layers.0/self_attn/Reshape_4_output_0">
					<dim>1</dim>
					<dim>20</dim>
					<dim>256</dim>
				</port>
			</output>
		</layer>
		<layer id="65" name="Transpose_2640" type="Const" version="opset1">
			<data element_type="f32" shape="256, 256" offset="2399408" size="262144" />
			<output>
				<port id="0" precision="FP32">
					<dim>256</dim>
					<dim>256</dim>
				</port>
			</output>
		</layer>
		<layer id="66" name="/model/encoders/layers.0/self_attn/pe/linear/MatMul" type="MatMul" version="opset1">
			<data transpose_a="false" transpose_b="true" />
			<input>
				<port id="0" precision="FP32">
					<dim>1</dim>
					<dim>20</dim>
					<dim>256</dim>
				</port>
				<port id="1" precision="FP32">
					<dim>256</dim>
					<dim>256</dim>
				</port>
			</input>
			<output>
				<port id="2" precision="FP32" names="/model/encoders/layers.0/self_attn/pe/linear/MatMul_output_0">
					<dim>1</dim>
					<dim>20</dim>
					<dim>256</dim>
				</port>
			</output>
		</layer>
		<layer id="67" name="/model/encoders/layers.0/self_attn/pe/linear/Add" type="Add" version="opset1">
			<data auto_broadcast="numpy" />
			<input>
				<port id="0" precision="FP32">
					<dim>1</dim>
					<dim>1</dim>
					<dim>256</dim>
				</port>
				<port id="1" precision="FP32">
					<dim>1</dim>
					<dim>20</dim>
					<dim>256</dim>
				</port>
			</input>
			<output>
				<port id="2" precision="FP32" names="/model/encoders/layers.0/self_attn/pe/linear/Add_output_0">
					<dim>1</dim>
					<dim>20</dim>
					<dim>256</dim>
				</port>
			</output>
		</layer>
		<layer id="68" name="Constant_215" type="Const" version="opset1">
			<data element_type="i64" shape="1" offset="1063948" size="8" />
			<output>
				<port id="0" precision="I64">
					<dim>1</dim>
				</port>
			</output>
		</layer>
		<layer id="69" name="/model/encoders/layers.0/self_attn/pe/norm/Div" type="MVN" version="opset6">
			<data eps="9.9999997473787516e-06" normalize_variance="true" eps_mode="INSIDE_SQRT" />
			<input>
				<port id="0" precision="FP32">
					<dim>1</dim>
					<dim>20</dim>
					<dim>256</dim>
				</port>
				<port id="1" precision="I64">
					<dim>1</dim>
				</port>
			</input>
			<output>
				<port id="2" precision="FP32" names="/model/encoders/layers.0/self_attn/pe/norm/Div_output_0">
					<dim>1</dim>
					<dim>20</dim>
					<dim>256</dim>
				</port>
			</output>
		</layer>
		<layer id="70" name="Constant_3261" type="Const" version="opset1">
			<data element_type="f32" shape="1, 1, 256" offset="2661552" size="1024" />
			<output>
				<port id="0" precision="FP32">
					<dim>1</dim>
					<dim>1</dim>
					<dim>256</dim>
				</port>
			</output>
		</layer>
		<layer id="71" name="/model/encoders/layers.0/self_attn/pe/norm/Mul" type="Multiply" version="opset1">
			<data auto_broadcast="numpy" />
			<input>
				<port id="0" precision="FP32">
					<dim>1</dim>
					<dim>20</dim>
					<dim>256</dim>
				</port>
				<port id="1" precision="FP32">
					<dim>1</dim>
					<dim>1</dim>
					<dim>256</dim>
				</port>
			</input>
			<output>
				<port id="2" precision="FP32" names="/model/encoders/layers.0/self_attn/pe/norm/Mul_output_0">
					<dim>1</dim>
					<dim>20</dim>
					<dim>256</dim>
				</port>
			</output>
		</layer>
		<layer id="72" name="Constant_3262" type="Const" version="opset1">
			<data element_type="f32" shape="1, 1, 256" offset="2662576" size="1024" />
			<output>
				<port id="0" precision="FP32">
					<dim>1</dim>
					<dim>1</dim>
					<dim>256</dim>
				</port>
			</output>
		</layer>
		<layer id="73" name="/model/encoders/layers.0/self_attn/pe/norm/Add_1" type="Add" version="opset1">
			<data auto_broadcast="numpy" />
			<input>
				<port id="0" precision="FP32">
					<dim>1</dim>
					<dim>20</dim>
					<dim>256</dim>
				</port>
				<port id="1" precision="FP32">
					<dim>1</dim>
					<dim>1</dim>
					<dim>256</dim>
				</port>
			</input>
			<output>
				<port id="2" precision="FP32" names="/model/encoders/layers.0/self_attn/pe/norm/Add_1_output_0">
					<dim>1</dim>
					<dim>20</dim>
					<dim>256</dim>
				</port>
			</output>
		</layer>
		<layer id="74" name="/model/encoders/layers.0/self_attn/Add" type="Add" version="opset1">
			<data auto_broadcast="numpy" />
			<input>
				<port id="0" precision="FP32">
					<dim>1</dim>
					<dim>20</dim>
					<dim>256</dim>
				</port>
				<port id="1" precision="FP32">
					<dim>1</dim>
					<dim>20</dim>
					<dim>256</dim>
				</port>
			</input>
			<output>
				<port id="2" precision="FP32" names="/model/encoders/layers.0/self_attn/Add_output_0">
					<dim>1</dim>
					<dim>20</dim>
					<dim>256</dim>
				</port>
			</output>
		</layer>
		<layer id="75" name="Transpose_2658" type="Const" version="opset1">
			<data element_type="f32" shape="256, 256" offset="2663600" size="262144" />
			<output>
				<port id="0" precision="FP32">
					<dim>256</dim>
					<dim>256</dim>
				</port>
			</output>
		</layer>
		<layer id="76" name="/model/encoders/layers.0/self_attn/out/linear/MatMul" type="MatMul" version="opset1">
			<data transpose_a="false" transpose_b="true" />
			<input>
				<port id="0" precision="FP32">
					<dim>1</dim>
					<dim>20</dim>
					<dim>256</dim>
				</port>
				<port id="1" precision="FP32">
					<dim>256</dim>
					<dim>256</dim>
				</port>
			</input>
			<output>
				<port id="2" precision="FP32" names="/model/encoders/layers.0/self_attn/out/linear/MatMul_output_0">
					<dim>1</dim>
					<dim>20</dim>
					<dim>256</dim>
				</port>
			</output>
		</layer>
		<layer id="77" name="/model/encoders/layers.0/self_attn/out/linear/Add" type="Add" version="opset1">
			<data auto_broadcast="numpy" />
			<input>
				<port id="0" precision="FP32">
					<dim>1</dim>
					<dim>1</dim>
					<dim>256</dim>
				</port>
				<port id="1" precision="FP32">
					<dim>1</dim>
					<dim>20</dim>
					<dim>256</dim>
				</port>
			</input>
			<output>
				<port id="2" precision="FP32" names="/model/encoders/layers.0/self_attn/out/linear/Add_output_0">
					<dim>1</dim>
					<dim>20</dim>
					<dim>256</dim>
				</port>
			</output>
		</layer>
		<layer id="78" name="Constant_231" type="Const" version="opset1">
			<data element_type="i64" shape="1" offset="1063948" size="8" />
			<output>
				<port id="0" precision="I64">
					<dim>1</dim>
				</port>
			</output>
		</layer>
		<layer id="79" name="/model/encoders/layers.0/self_attn/out/norm/Div" type="MVN" version="opset6">
			<data eps="9.9999997473787516e-06" normalize_variance="true" eps_mode="INSIDE_SQRT" />
			<input>
				<port id="0" precision="FP32">
					<dim>1</dim>
					<dim>20</dim>
					<dim>256</dim>
				</port>
				<port id="1" precision="I64">
					<dim>1</dim>
				</port>
			</input>
			<output>
				<port id="2" precision="FP32" names="/model/encoders/layers.0/self_attn/out/norm/Div_output_0">
					<dim>1</dim>
					<dim>20</dim>
					<dim>256</dim>
				</port>
			</output>
		</layer>
		<layer id="80" name="Constant_3264" type="Const" version="opset1">
			<data element_type="f32" shape="1, 1, 256" offset="2925744" size="1024" />
			<output>
				<port id="0" precision="FP32">
					<dim>1</dim>
					<dim>1</dim>
					<dim>256</dim>
				</port>
			</output>
		</layer>
		<layer id="81" name="/model/encoders/layers.0/self_attn/out/norm/Mul" type="Multiply" version="opset1">
			<data auto_broadcast="numpy" />
			<input>
				<port id="0" precision="FP32">
					<dim>1</dim>
					<dim>20</dim>
					<dim>256</dim>
				</port>
				<port id="1" precision="FP32">
					<dim>1</dim>
					<dim>1</dim>
					<dim>256</dim>
				</port>
			</input>
			<output>
				<port id="2" precision="FP32" names="/model/encoders/layers.0/self_attn/out/norm/Mul_output_0">
					<dim>1</dim>
					<dim>20</dim>
					<dim>256</dim>
				</port>
			</output>
		</layer>
		<layer id="82" name="Constant_3265" type="Const" version="opset1">
			<data element_type="f32" shape="1, 1, 256" offset="2926768" size="1024" />
			<output>
				<port id="0" precision="FP32">
					<dim>1</dim>
					<dim>1</dim>
					<dim>256</dim>
				</port>
			</output>
		</layer>
		<layer id="83" name="/model/encoders/layers.0/self_attn/out/norm/Add_1" type="Add" version="opset1">
			<data auto_broadcast="numpy" />
			<input>
				<port id="0" precision="FP32">
					<dim>1</dim>
					<dim>20</dim>
					<dim>256</dim>
				</port>
				<port id="1" precision="FP32">
					<dim>1</dim>
					<dim>1</dim>
					<dim>256</dim>
				</port>
			</input>
			<output>
				<port id="2" precision="FP32" names="/model/encoders/layers.0/self_attn/out/norm/Add_1_output_0">
					<dim>1</dim>
					<dim>20</dim>
					<dim>256</dim>
				</port>
			</output>
		</layer>
		<layer id="84" name="/model/encoders/layers.0/Add" type="Add" version="opset1">
			<data auto_broadcast="numpy" />
			<input>
				<port id="0" precision="FP32">
					<dim>1</dim>
					<dim>20</dim>
					<dim>256</dim>
				</port>
				<port id="1" precision="FP32">
					<dim>1</dim>
					<dim>20</dim>
					<dim>256</dim>
				</port>
			</input>
			<output>
				<port id="2" precision="FP32" names="/model/encoders/layers.0/Add_output_0">
					<dim>1</dim>
					<dim>20</dim>
					<dim>256</dim>
				</port>
			</output>
		</layer>
		<layer id="85" name="Constant_245" type="Const" version="opset1">
			<data element_type="i64" shape="1" offset="1063948" size="8" />
			<output>
				<port id="0" precision="I64">
					<dim>1</dim>
				</port>
			</output>
		</layer>
		<layer id="86" name="/model/encoders/layers.0/norm1/Div" type="MVN" version="opset6">
			<data eps="9.9999997473787516e-06" normalize_variance="true" eps_mode="INSIDE_SQRT" />
			<input>
				<port id="0" precision="FP32">
					<dim>1</dim>
					<dim>20</dim>
					<dim>256</dim>
				</port>
				<port id="1" precision="I64">
					<dim>1</dim>
				</port>
			</input>
			<output>
				<port id="2" precision="FP32" names="/model/encoders/layers.0/norm1/Div_output_0">
					<dim>1</dim>
					<dim>20</dim>
					<dim>256</dim>
				</port>
			</output>
		</layer>
		<layer id="87" name="Constant_3266" type="Const" version="opset1">
			<data element_type="f32" shape="1, 1, 256" offset="2927792" size="1024" />
			<output>
				<port id="0" precision="FP32">
					<dim>1</dim>
					<dim>1</dim>
					<dim>256</dim>
				</port>
			</output>
		</layer>
		<layer id="88" name="/model/encoders/layers.0/norm1/Mul" type="Multiply" version="opset1">
			<data auto_broadcast="numpy" />
			<input>
				<port id="0" precision="FP32">
					<dim>1</dim>
					<dim>20</dim>
					<dim>256</dim>
				</port>
				<port id="1" precision="FP32">
					<dim>1</dim>
					<dim>1</dim>
					<dim>256</dim>
				</port>
			</input>
			<output>
				<port id="2" precision="FP32" names="/model/encoders/layers.0/norm1/Mul_output_0">
					<dim>1</dim>
					<dim>20</dim>
					<dim>256</dim>
				</port>
			</output>
		</layer>
		<layer id="89" name="Constant_3267" type="Const" version="opset1">
			<data element_type="f32" shape="1, 1, 256" offset="2928816" size="1024" />
			<output>
				<port id="0" precision="FP32">
					<dim>1</dim>
					<dim>1</dim>
					<dim>256</dim>
				</port>
			</output>
		</layer>
		<layer id="90" name="/model/encoders/layers.0/norm1/Add_1" type="Add" version="opset1">
			<data auto_broadcast="numpy" />
			<input>
				<port id="0" precision="FP32">
					<dim>1</dim>
					<dim>20</dim>
					<dim>256</dim>
				</port>
				<port id="1" precision="FP32">
					<dim>1</dim>
					<dim>1</dim>
					<dim>256</dim>
				</port>
			</input>
			<output>
				<port id="2" precision="FP32" names="/model/encoders/layers.0/norm1/Add_1_output_0">
					<dim>1</dim>
					<dim>20</dim>
					<dim>256</dim>
				</port>
			</output>
		</layer>
		<layer id="91" name="Constant_3271" type="Const" version="opset1">
			<data element_type="f32" shape="1, 1, 256" offset="2929840" size="1024" />
			<output>
				<port id="0" precision="FP32">
					<dim>1</dim>
					<dim>1</dim>
					<dim>256</dim>
				</port>
			</output>
		</layer>
		<layer id="92" name="Constant_3268" type="Const" version="opset1">
			<data element_type="f32" shape="1, 1, 512" offset="2930864" size="2048" />
			<output>
				<port id="0" precision="FP32">
					<dim>1</dim>
					<dim>1</dim>
					<dim>512</dim>
				</port>
			</output>
		</layer>
		<layer id="93" name="Transpose_2685" type="Const" version="opset1">
			<data element_type="f32" shape="512, 256" offset="2932912" size="524288" />
			<output>
				<port id="0" precision="FP32">
					<dim>512</dim>
					<dim>256</dim>
				</port>
			</output>
		</layer>
		<layer id="94" name="/model/encoders/layers.0/ffn/linear1/linear/MatMul" type="MatMul" version="opset1">
			<data transpose_a="false" transpose_b="true" />
			<input>
				<port id="0" precision="FP32">
					<dim>1</dim>
					<dim>20</dim>
					<dim>256</dim>
				</port>
				<port id="1" precision="FP32">
					<dim>512</dim>
					<dim>256</dim>
				</port>
			</input>
			<output>
				<port id="2" precision="FP32" names="/model/encoders/layers.0/ffn/linear1/linear/MatMul_output_0">
					<dim>1</dim>
					<dim>20</dim>
					<dim>512</dim>
				</port>
			</output>
		</layer>
		<layer id="95" name="/model/encoders/layers.0/ffn/linear1/linear/Add" type="Add" version="opset1">
			<data auto_broadcast="numpy" />
			<input>
				<port id="0" precision="FP32">
					<dim>1</dim>
					<dim>1</dim>
					<dim>512</dim>
				</port>
				<port id="1" precision="FP32">
					<dim>1</dim>
					<dim>20</dim>
					<dim>512</dim>
				</port>
			</input>
			<output>
				<port id="2" precision="FP32" names="/model/encoders/layers.0/ffn/linear1/linear/Add_output_0">
					<dim>1</dim>
					<dim>20</dim>
					<dim>512</dim>
				</port>
			</output>
		</layer>
		<layer id="96" name="Constant_260" type="Const" version="opset1">
			<data element_type="i64" shape="1" offset="1063948" size="8" />
			<output>
				<port id="0" precision="I64">
					<dim>1</dim>
				</port>
			</output>
		</layer>
		<layer id="97" name="/model/encoders/layers.0/ffn/linear1/norm/Div" type="MVN" version="opset6">
			<data eps="9.9999997473787516e-06" normalize_variance="true" eps_mode="INSIDE_SQRT" />
			<input>
				<port id="0" precision="FP32">
					<dim>1</dim>
					<dim>20</dim>
					<dim>512</dim>
				</port>
				<port id="1" precision="I64">
					<dim>1</dim>
				</port>
			</input>
			<output>
				<port id="2" precision="FP32" names="/model/encoders/layers.0/ffn/linear1/norm/Div_output_0">
					<dim>1</dim>
					<dim>20</dim>
					<dim>512</dim>
				</port>
			</output>
		</layer>
		<layer id="98" name="Constant_3269" type="Const" version="opset1">
			<data element_type="f32" shape="1, 1, 512" offset="3457200" size="2048" />
			<output>
				<port id="0" precision="FP32">
					<dim>1</dim>
					<dim>1</dim>
					<dim>512</dim>
				</port>
			</output>
		</layer>
		<layer id="99" name="/model/encoders/layers.0/ffn/linear1/norm/Mul" type="Multiply" version="opset1">
			<data auto_broadcast="numpy" />
			<input>
				<port id="0" precision="FP32">
					<dim>1</dim>
					<dim>20</dim>
					<dim>512</dim>
				</port>
				<port id="1" precision="FP32">
					<dim>1</dim>
					<dim>1</dim>
					<dim>512</dim>
				</port>
			</input>
			<output>
				<port id="2" precision="FP32" names="/model/encoders/layers.0/ffn/linear1/norm/Mul_output_0">
					<dim>1</dim>
					<dim>20</dim>
					<dim>512</dim>
				</port>
			</output>
		</layer>
		<layer id="100" name="Constant_3270" type="Const" version="opset1">
			<data element_type="f32" shape="1, 1, 512" offset="3459248" size="2048" />
			<output>
				<port id="0" precision="FP32">
					<dim>1</dim>
					<dim>1</dim>
					<dim>512</dim>
				</port>
			</output>
		</layer>
		<layer id="101" name="/model/encoders/layers.0/ffn/linear1/norm/Add_1" type="Add" version="opset1">
			<data auto_broadcast="numpy" />
			<input>
				<port id="0" precision="FP32">
					<dim>1</dim>
					<dim>20</dim>
					<dim>512</dim>
				</port>
				<port id="1" precision="FP32">
					<dim>1</dim>
					<dim>1</dim>
					<dim>512</dim>
				</port>
			</input>
			<output>
				<port id="2" precision="FP32" names="/model/encoders/layers.0/ffn/linear1/norm/Add_1_output_0">
					<dim>1</dim>
					<dim>20</dim>
					<dim>512</dim>
				</port>
			</output>
		</layer>
		<layer id="102" name="/model/encoders/layers.0/ffn/linear1/act/Mul" type="Swish" version="opset4">
			<input>
				<port id="0" precision="FP32">
					<dim>1</dim>
					<dim>20</dim>
					<dim>512</dim>
				</port>
			</input>
			<output>
				<port id="1" precision="FP32" names="/model/encoders/layers.0/ffn/linear1/act/Mul_output_0">
					<dim>1</dim>
					<dim>20</dim>
					<dim>512</dim>
				</port>
			</output>
		</layer>
		<layer id="103" name="Transpose_2702" type="Const" version="opset1">
			<data element_type="f32" shape="256, 512" offset="3461296" size="524288" />
			<output>
				<port id="0" precision="FP32">
					<dim>256</dim>
					<dim>512</dim>
				</port>
			</output>
		</layer>
		<layer id="104" name="/model/encoders/layers.0/ffn/linear2/linear/MatMul" type="MatMul" version="opset1">
			<data transpose_a="false" transpose_b="true" />
			<input>
				<port id="0" precision="FP32">
					<dim>1</dim>
					<dim>20</dim>
					<dim>512</dim>
				</port>
				<port id="1" precision="FP32">
					<dim>256</dim>
					<dim>512</dim>
				</port>
			</input>
			<output>
				<port id="2" precision="FP32" names="/model/encoders/layers.0/ffn/linear2/linear/MatMul_output_0">
					<dim>1</dim>
					<dim>20</dim>
					<dim>256</dim>
				</port>
			</output>
		</layer>
		<layer id="105" name="/model/encoders/layers.0/ffn/linear2/linear/Add" type="Add" version="opset1">
			<data auto_broadcast="numpy" />
			<input>
				<port id="0" precision="FP32">
					<dim>1</dim>
					<dim>1</dim>
					<dim>256</dim>
				</port>
				<port id="1" precision="FP32">
					<dim>1</dim>
					<dim>20</dim>
					<dim>256</dim>
				</port>
			</input>
			<output>
				<port id="2" precision="FP32" names="/model/encoders/layers.0/ffn/linear2/linear/Add_output_0">
					<dim>1</dim>
					<dim>20</dim>
					<dim>256</dim>
				</port>
			</output>
		</layer>
		<layer id="106" name="Constant_277" type="Const" version="opset1">
			<data element_type="i64" shape="1" offset="1063948" size="8" />
			<output>
				<port id="0" precision="I64">
					<dim>1</dim>
				</port>
			</output>
		</layer>
		<layer id="107" name="/model/encoders/layers.0/ffn/linear2/norm/Div" type="MVN" version="opset6">
			<data eps="9.9999997473787516e-06" normalize_variance="true" eps_mode="INSIDE_SQRT" />
			<input>
				<port id="0" precision="FP32">
					<dim>1</dim>
					<dim>20</dim>
					<dim>256</dim>
				</port>
				<port id="1" precision="I64">
					<dim>1</dim>
				</port>
			</input>
			<output>
				<port id="2" precision="FP32" names="/model/encoders/layers.0/ffn/linear2/norm/Div_output_0">
					<dim>1</dim>
					<dim>20</dim>
					<dim>256</dim>
				</port>
			</output>
		</layer>
		<layer id="108" name="Constant_3272" type="Const" version="opset1">
			<data element_type="f32" shape="1, 1, 256" offset="3985584" size="1024" />
			<output>
				<port id="0" precision="FP32">
					<dim>1</dim>
					<dim>1</dim>
					<dim>256</dim>
				</port>
			</output>
		</layer>
		<layer id="109" name="/model/encoders/layers.0/ffn/linear2/norm/Mul" type="Multiply" version="opset1">
			<data auto_broadcast="numpy" />
			<input>
				<port id="0" precision="FP32">
					<dim>1</dim>
					<dim>20</dim>
					<dim>256</dim>
				</port>
				<port id="1" precision="FP32">
					<dim>1</dim>
					<dim>1</dim>
					<dim>256</dim>
				</port>
			</input>
			<output>
				<port id="2" precision="FP32" names="/model/encoders/layers.0/ffn/linear2/norm/Mul_output_0">
					<dim>1</dim>
					<dim>20</dim>
					<dim>256</dim>
				</port>
			</output>
		</layer>
		<layer id="110" name="Constant_3273" type="Const" version="opset1">
			<data element_type="f32" shape="1, 1, 256" offset="3986608" size="1024" />
			<output>
				<port id="0" precision="FP32">
					<dim>1</dim>
					<dim>1</dim>
					<dim>256</dim>
				</port>
			</output>
		</layer>
		<layer id="111" name="/model/encoders/layers.0/ffn/linear2/norm/Add_1" type="Add" version="opset1">
			<data auto_broadcast="numpy" />
			<input>
				<port id="0" precision="FP32">
					<dim>1</dim>
					<dim>20</dim>
					<dim>256</dim>
				</port>
				<port id="1" precision="FP32">
					<dim>1</dim>
					<dim>1</dim>
					<dim>256</dim>
				</port>
			</input>
			<output>
				<port id="2" precision="FP32" names="/model/encoders/layers.0/ffn/linear2/norm/Add_1_output_0">
					<dim>1</dim>
					<dim>20</dim>
					<dim>256</dim>
				</port>
			</output>
		</layer>
		<layer id="112" name="/model/encoders/layers.0/Add_1" type="Add" version="opset1">
			<data auto_broadcast="numpy" />
			<input>
				<port id="0" precision="FP32">
					<dim>1</dim>
					<dim>20</dim>
					<dim>256</dim>
				</port>
				<port id="1" precision="FP32">
					<dim>1</dim>
					<dim>20</dim>
					<dim>256</dim>
				</port>
			</input>
			<output>
				<port id="2" precision="FP32" names="/model/encoders/layers.0/Add_1_output_0">
					<dim>1</dim>
					<dim>20</dim>
					<dim>256</dim>
				</port>
			</output>
		</layer>
		<layer id="113" name="Constant_291" type="Const" version="opset1">
			<data element_type="i64" shape="1" offset="1063948" size="8" />
			<output>
				<port id="0" precision="I64">
					<dim>1</dim>
				</port>
			</output>
		</layer>
		<layer id="114" name="/model/encoders/layers.0/norm2/Div" type="MVN" version="opset6">
			<data eps="9.9999997473787516e-06" normalize_variance="true" eps_mode="INSIDE_SQRT" />
			<input>
				<port id="0" precision="FP32">
					<dim>1</dim>
					<dim>20</dim>
					<dim>256</dim>
				</port>
				<port id="1" precision="I64">
					<dim>1</dim>
				</port>
			</input>
			<output>
				<port id="2" precision="FP32" names="/model/encoders/layers.0/norm2/Div_output_0">
					<dim>1</dim>
					<dim>20</dim>
					<dim>256</dim>
				</port>
			</output>
		</layer>
		<layer id="115" name="Constant_3274" type="Const" version="opset1">
			<data element_type="f32" shape="1, 1, 256" offset="3987632" size="1024" />
			<output>
				<port id="0" precision="FP32">
					<dim>1</dim>
					<dim>1</dim>
					<dim>256</dim>
				</port>
			</output>
		</layer>
		<layer id="116" name="/model/encoders/layers.0/norm2/Mul" type="Multiply" version="opset1">
			<data auto_broadcast="numpy" />
			<input>
				<port id="0" precision="FP32">
					<dim>1</dim>
					<dim>20</dim>
					<dim>256</dim>
				</port>
				<port id="1" precision="FP32">
					<dim>1</dim>
					<dim>1</dim>
					<dim>256</dim>
				</port>
			</input>
			<output>
				<port id="2" precision="FP32" names="/model/encoders/layers.0/norm2/Mul_output_0">
					<dim>1</dim>
					<dim>20</dim>
					<dim>256</dim>
				</port>
			</output>
		</layer>
		<layer id="117" name="Constant_3275" type="Const" version="opset1">
			<data element_type="f32" shape="1, 1, 256" offset="3988656" size="1024" />
			<output>
				<port id="0" precision="FP32">
					<dim>1</dim>
					<dim>1</dim>
					<dim>256</dim>
				</port>
			</output>
		</layer>
		<layer id="118" name="/model/encoders/layers.0/norm2/Add_1" type="Add" version="opset1">
			<data auto_broadcast="numpy" />
			<input>
				<port id="0" precision="FP32">
					<dim>1</dim>
					<dim>20</dim>
					<dim>256</dim>
				</port>
				<port id="1" precision="FP32">
					<dim>1</dim>
					<dim>1</dim>
					<dim>256</dim>
				</port>
			</input>
			<output>
				<port id="2" precision="FP32" names="/model/encoders/layers.0/norm2/Add_1_output_0">
					<dim>1</dim>
					<dim>20</dim>
					<dim>256</dim>
				</port>
			</output>
		</layer>
		<layer id="119" name="Constant_3289" type="Const" version="opset1">
			<data element_type="f32" shape="1, 1, 256" offset="3989680" size="1024" />
			<output>
				<port id="0" precision="FP32">
					<dim>1</dim>
					<dim>1</dim>
					<dim>256</dim>
				</port>
			</output>
		</layer>
		<layer id="120" name="Constant_3276" type="Const" version="opset1">
			<data element_type="f32" shape="1, 1, 1024" offset="3990704" size="4096" />
			<output>
				<port id="0" precision="FP32">
					<dim>1</dim>
					<dim>1</dim>
					<dim>1024</dim>
				</port>
			</output>
		</layer>
		<layer id="121" name="Transpose_2729" type="Const" version="opset1">
			<data element_type="f32" shape="1024, 256" offset="3994800" size="1048576" />
			<output>
				<port id="0" precision="FP32">
					<dim>1024</dim>
					<dim>256</dim>
				</port>
			</output>
		</layer>
		<layer id="122" name="/model/encoders/layers.1/self_attn/wq/linear/MatMul" type="MatMul" version="opset1">
			<data transpose_a="false" transpose_b="true" />
			<input>
				<port id="0" precision="FP32">
					<dim>1</dim>
					<dim>20</dim>
					<dim>256</dim>
				</port>
				<port id="1" precision="FP32">
					<dim>1024</dim>
					<dim>256</dim>
				</port>
			</input>
			<output>
				<port id="2" precision="FP32" names="/model/encoders/layers.1/self_attn/wq/linear/MatMul_output_0">
					<dim>1</dim>
					<dim>20</dim>
					<dim>1024</dim>
				</port>
			</output>
		</layer>
		<layer id="123" name="/model/encoders/layers.1/self_attn/wq/linear/Add" type="Add" version="opset1">
			<data auto_broadcast="numpy" />
			<input>
				<port id="0" precision="FP32">
					<dim>1</dim>
					<dim>1</dim>
					<dim>1024</dim>
				</port>
				<port id="1" precision="FP32">
					<dim>1</dim>
					<dim>20</dim>
					<dim>1024</dim>
				</port>
			</input>
			<output>
				<port id="2" precision="FP32" names="/model/encoders/layers.1/self_attn/wq/linear/Add_output_0">
					<dim>1</dim>
					<dim>20</dim>
					<dim>1024</dim>
				</port>
			</output>
		</layer>
		<layer id="124" name="Constant_306" type="Const" version="opset1">
			<data element_type="i64" shape="1" offset="1063948" size="8" />
			<output>
				<port id="0" precision="I64">
					<dim>1</dim>
				</port>
			</output>
		</layer>
		<layer id="125" name="/model/encoders/layers.1/self_attn/wq/norm/Div" type="MVN" version="opset6">
			<data eps="9.9999997473787516e-06" normalize_variance="true" eps_mode="INSIDE_SQRT" />
			<input>
				<port id="0" precision="FP32">
					<dim>1</dim>
					<dim>20</dim>
					<dim>1024</dim>
				</port>
				<port id="1" precision="I64">
					<dim>1</dim>
				</port>
			</input>
			<output>
				<port id="2" precision="FP32" names="/model/encoders/layers.1/self_attn/wq/norm/Div_output_0">
					<dim>1</dim>
					<dim>20</dim>
					<dim>1024</dim>
				</port>
			</output>
		</layer>
		<layer id="126" name="Constant_3277" type="Const" version="opset1">
			<data element_type="f32" shape="1, 1, 1024" offset="5043376" size="4096" />
			<output>
				<port id="0" precision="FP32">
					<dim>1</dim>
					<dim>1</dim>
					<dim>1024</dim>
				</port>
			</output>
		</layer>
		<layer id="127" name="/model/encoders/layers.1/self_attn/wq/norm/Mul" type="Multiply" version="opset1">
			<data auto_broadcast="numpy" />
			<input>
				<port id="0" precision="FP32">
					<dim>1</dim>
					<dim>20</dim>
					<dim>1024</dim>
				</port>
				<port id="1" precision="FP32">
					<dim>1</dim>
					<dim>1</dim>
					<dim>1024</dim>
				</port>
			</input>
			<output>
				<port id="2" precision="FP32" names="/model/encoders/layers.1/self_attn/wq/norm/Mul_output_0">
					<dim>1</dim>
					<dim>20</dim>
					<dim>1024</dim>
				</port>
			</output>
		</layer>
		<layer id="128" name="Constant_3278" type="Const" version="opset1">
			<data element_type="f32" shape="1, 1, 1024" offset="5047472" size="4096" />
			<output>
				<port id="0" precision="FP32">
					<dim>1</dim>
					<dim>1</dim>
					<dim>1024</dim>
				</port>
			</output>
		</layer>
		<layer id="129" name="/model/encoders/layers.1/self_attn/wq/norm/Add_1" type="Add" version="opset1">
			<data auto_broadcast="numpy" />
			<input>
				<port id="0" precision="FP32">
					<dim>1</dim>
					<dim>20</dim>
					<dim>1024</dim>
				</port>
				<port id="1" precision="FP32">
					<dim>1</dim>
					<dim>1</dim>
					<dim>1024</dim>
				</port>
			</input>
			<output>
				<port id="2" precision="FP32" names="/model/encoders/layers.1/self_attn/wq/norm/Add_1_output_0">
					<dim>1</dim>
					<dim>20</dim>
					<dim>1024</dim>
				</port>
			</output>
		</layer>
		<layer id="130" name="/model/encoders/layers.1/self_attn/Constant" type="Const" version="opset1">
			<data element_type="i64" shape="4" offset="1072148" size="32" />
			<output>
				<port id="0" precision="I64" names="/model/encoders/layers.1/self_attn/Constant_output_0">
					<dim>4</dim>
				</port>
			</output>
		</layer>
		<layer id="131" name="/model/encoders/layers.1/self_attn/Reshape" type="Reshape" version="opset1">
			<data special_zero="true" />
			<input>
				<port id="0" precision="FP32">
					<dim>1</dim>
					<dim>20</dim>
					<dim>1024</dim>
				</port>
				<port id="1" precision="I64">
					<dim>4</dim>
				</port>
			</input>
			<output>
				<port id="2" precision="FP32" names="/model/encoders/layers.1/self_attn/Reshape_output_0">
					<dim>1</dim>
					<dim>20</dim>
					<dim>8</dim>
					<dim>128</dim>
				</port>
			</output>
		</layer>
		<layer id="132" name="Constant_322" type="Const" version="opset1">
			<data element_type="i64" shape="4" offset="1072180" size="32" />
			<output>
				<port id="0" precision="I64">
					<dim>4</dim>
				</port>
			</output>
		</layer>
		<layer id="133" name="/model/encoders/layers.1/self_attn/Transpose" type="Transpose" version="opset1">
			<input>
				<port id="0" precision="FP32">
					<dim>1</dim>
					<dim>20</dim>
					<dim>8</dim>
					<dim>128</dim>
				</port>
				<port id="1" precision="I64">
					<dim>4</dim>
				</port>
			</input>
			<output>
				<port id="2" precision="FP32" names="/model/encoders/layers.1/self_attn/Transpose_output_0">
					<dim>1</dim>
					<dim>8</dim>
					<dim>20</dim>
					<dim>128</dim>
				</port>
			</output>
		</layer>
		<layer id="134" name="Constant_3279" type="Const" version="opset1">
			<data element_type="f32" shape="1, 1, 1024" offset="5051568" size="4096" />
			<output>
				<port id="0" precision="FP32">
					<dim>1</dim>
					<dim>1</dim>
					<dim>1024</dim>
				</port>
			</output>
		</layer>
		<layer id="135" name="Transpose_2745" type="Const" version="opset1">
			<data element_type="f32" shape="1024, 256" offset="5055664" size="1048576" />
			<output>
				<port id="0" precision="FP32">
					<dim>1024</dim>
					<dim>256</dim>
				</port>
			</output>
		</layer>
		<layer id="136" name="/model/encoders/layers.1/self_attn/wk/linear/MatMul" type="MatMul" version="opset1">
			<data transpose_a="false" transpose_b="true" />
			<input>
				<port id="0" precision="FP32">
					<dim>1</dim>
					<dim>20</dim>
					<dim>256</dim>
				</port>
				<port id="1" precision="FP32">
					<dim>1024</dim>
					<dim>256</dim>
				</port>
			</input>
			<output>
				<port id="2" precision="FP32" names="/model/encoders/layers.1/self_attn/wk/linear/MatMul_output_0">
					<dim>1</dim>
					<dim>20</dim>
					<dim>1024</dim>
				</port>
			</output>
		</layer>
		<layer id="137" name="/model/encoders/layers.1/self_attn/wk/linear/Add" type="Add" version="opset1">
			<data auto_broadcast="numpy" />
			<input>
				<port id="0" precision="FP32">
					<dim>1</dim>
					<dim>1</dim>
					<dim>1024</dim>
				</port>
				<port id="1" precision="FP32">
					<dim>1</dim>
					<dim>20</dim>
					<dim>1024</dim>
				</port>
			</input>
			<output>
				<port id="2" precision="FP32" names="/model/encoders/layers.1/self_attn/wk/linear/Add_output_0">
					<dim>1</dim>
					<dim>20</dim>
					<dim>1024</dim>
				</port>
			</output>
		</layer>
		<layer id="138" name="Constant_326" type="Const" version="opset1">
			<data element_type="i64" shape="1" offset="1063948" size="8" />
			<output>
				<port id="0" precision="I64">
					<dim>1</dim>
				</port>
			</output>
		</layer>
		<layer id="139" name="/model/encoders/layers.1/self_attn/wk/norm/Div" type="MVN" version="opset6">
			<data eps="9.9999997473787516e-06" normalize_variance="true" eps_mode="INSIDE_SQRT" />
			<input>
				<port id="0" precision="FP32">
					<dim>1</dim>
					<dim>20</dim>
					<dim>1024</dim>
				</port>
				<port id="1" precision="I64">
					<dim>1</dim>
				</port>
			</input>
			<output>
				<port id="2" precision="FP32" names="/model/encoders/layers.1/self_attn/wk/norm/Div_output_0">
					<dim>1</dim>
					<dim>20</dim>
					<dim>1024</dim>
				</port>
			</output>
		</layer>
		<layer id="140" name="Constant_3280" type="Const" version="opset1">
			<data element_type="f32" shape="1, 1, 1024" offset="6104240" size="4096" />
			<output>
				<port id="0" precision="FP32">
					<dim>1</dim>
					<dim>1</dim>
					<dim>1024</dim>
				</port>
			</output>
		</layer>
		<layer id="141" name="/model/encoders/layers.1/self_attn/wk/norm/Mul" type="Multiply" version="opset1">
			<data auto_broadcast="numpy" />
			<input>
				<port id="0" precision="FP32">
					<dim>1</dim>
					<dim>20</dim>
					<dim>1024</dim>
				</port>
				<port id="1" precision="FP32">
					<dim>1</dim>
					<dim>1</dim>
					<dim>1024</dim>
				</port>
			</input>
			<output>
				<port id="2" precision="FP32" names="/model/encoders/layers.1/self_attn/wk/norm/Mul_output_0">
					<dim>1</dim>
					<dim>20</dim>
					<dim>1024</dim>
				</port>
			</output>
		</layer>
		<layer id="142" name="Constant_3281" type="Const" version="opset1">
			<data element_type="f32" shape="1, 1, 1024" offset="6108336" size="4096" />
			<output>
				<port id="0" precision="FP32">
					<dim>1</dim>
					<dim>1</dim>
					<dim>1024</dim>
				</port>
			</output>
		</layer>
		<layer id="143" name="/model/encoders/layers.1/self_attn/wk/norm/Add_1" type="Add" version="opset1">
			<data auto_broadcast="numpy" />
			<input>
				<port id="0" precision="FP32">
					<dim>1</dim>
					<dim>20</dim>
					<dim>1024</dim>
				</port>
				<port id="1" precision="FP32">
					<dim>1</dim>
					<dim>1</dim>
					<dim>1024</dim>
				</port>
			</input>
			<output>
				<port id="2" precision="FP32" names="/model/encoders/layers.1/self_attn/wk/norm/Add_1_output_0">
					<dim>1</dim>
					<dim>20</dim>
					<dim>1024</dim>
				</port>
			</output>
		</layer>
		<layer id="144" name="/model/encoders/layers.1/self_attn/Constant_1" type="Const" version="opset1">
			<data element_type="i64" shape="4" offset="1072148" size="32" />
			<output>
				<port id="0" precision="I64" names="/model/encoders/layers.1/self_attn/Constant_1_output_0">
					<dim>4</dim>
				</port>
			</output>
		</layer>
		<layer id="145" name="/model/encoders/layers.1/self_attn/Reshape_1" type="Reshape" version="opset1">
			<data special_zero="true" />
			<input>
				<port id="0" precision="FP32">
					<dim>1</dim>
					<dim>20</dim>
					<dim>1024</dim>
				</port>
				<port id="1" precision="I64">
					<dim>4</dim>
				</port>
			</input>
			<output>
				<port id="2" precision="FP32" names="/model/encoders/layers.1/self_attn/Reshape_1_output_0">
					<dim>1</dim>
					<dim>20</dim>
					<dim>8</dim>
					<dim>128</dim>
				</port>
			</output>
		</layer>
		<layer id="146" name="Constant_359" type="Const" version="opset1">
			<data element_type="i64" shape="4" offset="2133076" size="32" />
			<output>
				<port id="0" precision="I64">
					<dim>4</dim>
				</port>
			</output>
		</layer>
		<layer id="147" name="/model/encoders/layers.1/self_attn/Transpose_2" type="Transpose" version="opset1">
			<input>
				<port id="0" precision="FP32">
					<dim>1</dim>
					<dim>20</dim>
					<dim>8</dim>
					<dim>128</dim>
				</port>
				<port id="1" precision="I64">
					<dim>4</dim>
				</port>
			</input>
			<output>
				<port id="2" precision="FP32" names="/model/encoders/layers.1/self_attn/Transpose_2_output_0">
					<dim>1</dim>
					<dim>8</dim>
					<dim>128</dim>
					<dim>20</dim>
				</port>
			</output>
		</layer>
		<layer id="148" name="Constant_3282" type="Const" version="opset1">
			<data element_type="f32" shape="1, 1, 1, 1" offset="2133108" size="4" />
			<output>
				<port id="0" precision="FP32">
					<dim>1</dim>
					<dim>1</dim>
					<dim>1</dim>
					<dim>1</dim>
				</port>
			</output>
		</layer>
		<layer id="149" name="Multiply_3190" type="Multiply" version="opset1">
			<data auto_broadcast="numpy" />
			<input>
				<port id="0" precision="FP32">
					<dim>1</dim>
					<dim>8</dim>
					<dim>128</dim>
					<dim>20</dim>
				</port>
				<port id="1" precision="FP32">
					<dim>1</dim>
					<dim>1</dim>
					<dim>1</dim>
					<dim>1</dim>
				</port>
			</input>
			<output>
				<port id="2" precision="FP32">
					<dim>1</dim>
					<dim>8</dim>
					<dim>128</dim>
					<dim>20</dim>
				</port>
			</output>
		</layer>
		<layer id="150" name="/model/encoders/layers.1/self_attn/Div" type="MatMul" version="opset1">
			<data transpose_a="false" transpose_b="false" />
			<input>
				<port id="0" precision="FP32">
					<dim>1</dim>
					<dim>8</dim>
					<dim>20</dim>
					<dim>128</dim>
				</port>
				<port id="1" precision="FP32">
					<dim>1</dim>
					<dim>8</dim>
					<dim>128</dim>
					<dim>20</dim>
				</port>
			</input>
			<output>
				<port id="2" precision="FP32" names="/model/encoders/layers.1/self_attn/Div_output_0">
					<dim>1</dim>
					<dim>8</dim>
					<dim>20</dim>
					<dim>20</dim>
				</port>
			</output>
		</layer>
		<layer id="151" name="/model/encoders/layers.1/self_attn/Softmax" type="SoftMax" version="opset8">
			<data axis="-1" />
			<input>
				<port id="0" precision="FP32">
					<dim>1</dim>
					<dim>8</dim>
					<dim>20</dim>
					<dim>20</dim>
				</port>
			</input>
			<output>
				<port id="1" precision="FP32" names="/model/encoders/layers.1/self_attn/Softmax_output_0">
					<dim>1</dim>
					<dim>8</dim>
					<dim>20</dim>
					<dim>20</dim>
				</port>
			</output>
		</layer>
		<layer id="152" name="Constant_3283" type="Const" version="opset1">
			<data element_type="f32" shape="1, 1, 256" offset="6112432" size="1024" />
			<output>
				<port id="0" precision="FP32">
					<dim>1</dim>
					<dim>1</dim>
					<dim>256</dim>
				</port>
			</output>
		</layer>
		<layer id="153" name="Transpose_2761" type="Const" version="opset1">
			<data element_type="f32" shape="256, 256" offset="6113456" size="262144" />
			<output>
				<port id="0" precision="FP32">
					<dim>256</dim>
					<dim>256</dim>
				</port>
			</output>
		</layer>
		<layer id="154" name="/model/encoders/layers.1/self_attn/wv/linear/MatMul" type="MatMul" version="opset1">
			<data transpose_a="false" transpose_b="true" />
			<input>
				<port id="0" precision="FP32">
					<dim>1</dim>
					<dim>20</dim>
					<dim>256</dim>
				</port>
				<port id="1" precision="FP32">
					<dim>256</dim>
					<dim>256</dim>
				</port>
			</input>
			<output>
				<port id="2" precision="FP32" names="/model/encoders/layers.1/self_attn/wv/linear/MatMul_output_0">
					<dim>1</dim>
					<dim>20</dim>
					<dim>256</dim>
				</port>
			</output>
		</layer>
		<layer id="155" name="/model/encoders/layers.1/self_attn/wv/linear/Add" type="Add" version="opset1">
			<data auto_broadcast="numpy" />
			<input>
				<port id="0" precision="FP32">
					<dim>1</dim>
					<dim>1</dim>
					<dim>256</dim>
				</port>
				<port id="1" precision="FP32">
					<dim>1</dim>
					<dim>20</dim>
					<dim>256</dim>
				</port>
			</input>
			<output>
				<port id="2" precision="FP32" names="/model/encoders/layers.1/self_attn/wv/linear/Add_output_0">
					<dim>1</dim>
					<dim>20</dim>
					<dim>256</dim>
				</port>
			</output>
		</layer>
		<layer id="156" name="Constant_342" type="Const" version="opset1">
			<data element_type="i64" shape="1" offset="1063948" size="8" />
			<output>
				<port id="0" precision="I64">
					<dim>1</dim>
				</port>
			</output>
		</layer>
		<layer id="157" name="/model/encoders/layers.1/self_attn/wv/norm/Div" type="MVN" version="opset6">
			<data eps="9.9999997473787516e-06" normalize_variance="true" eps_mode="INSIDE_SQRT" />
			<input>
				<port id="0" precision="FP32">
					<dim>1</dim>
					<dim>20</dim>
					<dim>256</dim>
				</port>
				<port id="1" precision="I64">
					<dim>1</dim>
				</port>
			</input>
			<output>
				<port id="2" precision="FP32" names="/model/encoders/layers.1/self_attn/wv/norm/Div_output_0">
					<dim>1</dim>
					<dim>20</dim>
					<dim>256</dim>
				</port>
			</output>
		</layer>
		<layer id="158" name="Constant_3284" type="Const" version="opset1">
			<data element_type="f32" shape="1, 1, 256" offset="6375600" size="1024" />
			<output>
				<port id="0" precision="FP32">
					<dim>1</dim>
					<dim>1</dim>
					<dim>256</dim>
				</port>
			</output>
		</layer>
		<layer id="159" name="/model/encoders/layers.1/self_attn/wv/norm/Mul" type="Multiply" version="opset1">
			<data auto_broadcast="numpy" />
			<input>
				<port id="0" precision="FP32">
					<dim>1</dim>
					<dim>20</dim>
					<dim>256</dim>
				</port>
				<port id="1" precision="FP32">
					<dim>1</dim>
					<dim>1</dim>
					<dim>256</dim>
				</port>
			</input>
			<output>
				<port id="2" precision="FP32" names="/model/encoders/layers.1/self_attn/wv/norm/Mul_output_0">
					<dim>1</dim>
					<dim>20</dim>
					<dim>256</dim>
				</port>
			</output>
		</layer>
		<layer id="160" name="Constant_3285" type="Const" version="opset1">
			<data element_type="f32" shape="1, 1, 256" offset="6376624" size="1024" />
			<output>
				<port id="0" precision="FP32">
					<dim>1</dim>
					<dim>1</dim>
					<dim>256</dim>
				</port>
			</output>
		</layer>
		<layer id="161" name="/model/encoders/layers.1/self_attn/wv/norm/Add_1" type="Add" version="opset1">
			<data auto_broadcast="numpy" />
			<input>
				<port id="0" precision="FP32">
					<dim>1</dim>
					<dim>20</dim>
					<dim>256</dim>
				</port>
				<port id="1" precision="FP32">
					<dim>1</dim>
					<dim>1</dim>
					<dim>256</dim>
				</port>
			</input>
			<output>
				<port id="2" precision="FP32" names="/model/encoders/layers.1/self_attn/wv/norm/Add_1_output_0">
					<dim>1</dim>
					<dim>20</dim>
					<dim>256</dim>
				</port>
			</output>
		</layer>
		<layer id="162" name="/model/encoders/layers.1/self_attn/Constant_2" type="Const" version="opset1">
			<data element_type="i64" shape="4" offset="2398328" size="32" />
			<output>
				<port id="0" precision="I64" names="/model/encoders/layers.1/self_attn/Constant_2_output_0">
					<dim>4</dim>
				</port>
			</output>
		</layer>
		<layer id="163" name="/model/encoders/layers.1/self_attn/Reshape_2" type="Reshape" version="opset1">
			<data special_zero="true" />
			<input>
				<port id="0" precision="FP32">
					<dim>1</dim>
					<dim>20</dim>
					<dim>256</dim>
				</port>
				<port id="1" precision="I64">
					<dim>4</dim>
				</port>
			</input>
			<output>
				<port id="2" precision="FP32" names="/model/encoders/layers.1/self_attn/Reshape_2_output_0">
					<dim>1</dim>
					<dim>20</dim>
					<dim>8</dim>
					<dim>32</dim>
				</port>
			</output>
		</layer>
		<layer id="164" name="Constant_357" type="Const" version="opset1">
			<data element_type="i64" shape="4" offset="1072180" size="32" />
			<output>
				<port id="0" precision="I64">
					<dim>4</dim>
				</port>
			</output>
		</layer>
		<layer id="165" name="/model/encoders/layers.1/self_attn/Transpose_1" type="Transpose" version="opset1">
			<input>
				<port id="0" precision="FP32">
					<dim>1</dim>
					<dim>20</dim>
					<dim>8</dim>
					<dim>32</dim>
				</port>
				<port id="1" precision="I64">
					<dim>4</dim>
				</port>
			</input>
			<output>
				<port id="2" precision="FP32" names="/model/encoders/layers.1/self_attn/Transpose_1_output_0">
					<dim>1</dim>
					<dim>8</dim>
					<dim>20</dim>
					<dim>32</dim>
				</port>
			</output>
		</layer>
		<layer id="166" name="/model/encoders/layers.1/self_attn/MatMul_1" type="MatMul" version="opset1">
			<data transpose_a="false" transpose_b="false" />
			<input>
				<port id="0" precision="FP32">
					<dim>1</dim>
					<dim>8</dim>
					<dim>20</dim>
					<dim>20</dim>
				</port>
				<port id="1" precision="FP32">
					<dim>1</dim>
					<dim>8</dim>
					<dim>20</dim>
					<dim>32</dim>
				</port>
			</input>
			<output>
				<port id="2" precision="FP32" names="/model/encoders/layers.1/self_attn/MatMul_1_output_0">
					<dim>1</dim>
					<dim>8</dim>
					<dim>20</dim>
					<dim>32</dim>
				</port>
			</output>
		</layer>
		<layer id="167" name="Constant_366" type="Const" version="opset1">
			<data element_type="i64" shape="4" offset="1072180" size="32" />
			<output>
				<port id="0" precision="I64">
					<dim>4</dim>
				</port>
			</output>
		</layer>
		<layer id="168" name="/model/encoders/layers.1/self_attn/Transpose_3" type="Transpose" version="opset1">
			<input>
				<port id="0" precision="FP32">
					<dim>1</dim>
					<dim>8</dim>
					<dim>20</dim>
					<dim>32</dim>
				</port>
				<port id="1" precision="I64">
					<dim>4</dim>
				</port>
			</input>
			<output>
				<port id="2" precision="FP32" names="/model/encoders/layers.1/self_attn/Transpose_3_output_0">
					<dim>1</dim>
					<dim>20</dim>
					<dim>8</dim>
					<dim>32</dim>
				</port>
			</output>
		</layer>
		<layer id="169" name="/model/encoders/layers.1/self_attn/Constant_4" type="Const" version="opset1">
			<data element_type="i64" shape="3" offset="2398360" size="24" />
			<output>
				<port id="0" precision="I64" names="/model/encoders/layers.1/self_attn/Constant_4_output_0">
					<dim>3</dim>
				</port>
			</output>
		</layer>
		<layer id="170" name="/model/encoders/layers.1/self_attn/Reshape_3" type="Reshape" version="opset1">
			<data special_zero="true" />
			<input>
				<port id="0" precision="FP32">
					<dim>1</dim>
					<dim>20</dim>
					<dim>8</dim>
					<dim>32</dim>
				</port>
				<port id="1" precision="I64">
					<dim>3</dim>
				</port>
			</input>
			<output>
				<port id="2" precision="FP32" names="/model/encoders/layers.1/self_attn/Reshape_3_output_0">
					<dim>1</dim>
					<dim>20</dim>
					<dim>256</dim>
				</port>
			</output>
		</layer>
		<layer id="171" name="Constant_3286" type="Const" version="opset1">
			<data element_type="f32" shape="1, 1, 256" offset="6377648" size="1024" />
			<output>
				<port id="0" precision="FP32">
					<dim>1</dim>
					<dim>1</dim>
					<dim>256</dim>
				</port>
			</output>
		</layer>
		<layer id="172" name="/model/encoders/layers.1/self_attn/Constant_5" type="Const" version="opset1">
			<data element_type="i64" shape="3" offset="2398360" size="24" />
			<output>
				<port id="0" precision="I64" names="/model/encoders/layers.1/self_attn/Constant_5_output_0">
					<dim>3</dim>
				</port>
			</output>
		</layer>
		<layer id="173" name="/model/encoders/layers.1/self_attn/Reshape_4" type="Reshape" version="opset1">
			<data special_zero="true" />
			<input>
				<port id="0" precision="FP32">
					<dim>1</dim>
					<dim>8</dim>
					<dim>20</dim>
					<dim>32</dim>
				</port>
				<port id="1" precision="I64">
					<dim>3</dim>
				</port>
			</input>
			<output>
				<port id="2" precision="FP32" names="/model/encoders/layers.1/self_attn/Reshape_4_output_0">
					<dim>1</dim>
					<dim>20</dim>
					<dim>256</dim>
				</port>
			</output>
		</layer>
		<layer id="174" name="Transpose_2777" type="Const" version="opset1">
			<data element_type="f32" shape="256, 256" offset="6378672" size="262144" />
			<output>
				<port id="0" precision="FP32">
					<dim>256</dim>
					<dim>256</dim>
				</port>
			</output>
		</layer>
		<layer id="175" name="/model/encoders/layers.1/self_attn/pe/linear/MatMul" type="MatMul" version="opset1">
			<data transpose_a="false" transpose_b="true" />
			<input>
				<port id="0" precision="FP32">
					<dim>1</dim>
					<dim>20</dim>
					<dim>256</dim>
				</port>
				<port id="1" precision="FP32">
					<dim>256</dim>
					<dim>256</dim>
				</port>
			</input>
			<output>
				<port id="2" precision="FP32" names="/model/encoders/layers.1/self_attn/pe/linear/MatMul_output_0">
					<dim>1</dim>
					<dim>20</dim>
					<dim>256</dim>
				</port>
			</output>
		</layer>
		<layer id="176" name="/model/encoders/layers.1/self_attn/pe/linear/Add" type="Add" version="opset1">
			<data auto_broadcast="numpy" />
			<input>
				<port id="0" precision="FP32">
					<dim>1</dim>
					<dim>1</dim>
					<dim>256</dim>
				</port>
				<port id="1" precision="FP32">
					<dim>1</dim>
					<dim>20</dim>
					<dim>256</dim>
				</port>
			</input>
			<output>
				<port id="2" precision="FP32" names="/model/encoders/layers.1/self_attn/pe/linear/Add_output_0">
					<dim>1</dim>
					<dim>20</dim>
					<dim>256</dim>
				</port>
			</output>
		</layer>
		<layer id="177" name="Constant_374" type="Const" version="opset1">
			<data element_type="i64" shape="1" offset="1063948" size="8" />
			<output>
				<port id="0" precision="I64">
					<dim>1</dim>
				</port>
			</output>
		</layer>
		<layer id="178" name="/model/encoders/layers.1/self_attn/pe/norm/Div" type="MVN" version="opset6">
			<data eps="9.9999997473787516e-06" normalize_variance="true" eps_mode="INSIDE_SQRT" />
			<input>
				<port id="0" precision="FP32">
					<dim>1</dim>
					<dim>20</dim>
					<dim>256</dim>
				</port>
				<port id="1" precision="I64">
					<dim>1</dim>
				</port>
			</input>
			<output>
				<port id="2" precision="FP32" names="/model/encoders/layers.1/self_attn/pe/norm/Div_output_0">
					<dim>1</dim>
					<dim>20</dim>
					<dim>256</dim>
				</port>
			</output>
		</layer>
		<layer id="179" name="Constant_3287" type="Const" version="opset1">
			<data element_type="f32" shape="1, 1, 256" offset="6640816" size="1024" />
			<output>
				<port id="0" precision="FP32">
					<dim>1</dim>
					<dim>1</dim>
					<dim>256</dim>
				</port>
			</output>
		</layer>
		<layer id="180" name="/model/encoders/layers.1/self_attn/pe/norm/Mul" type="Multiply" version="opset1">
			<data auto_broadcast="numpy" />
			<input>
				<port id="0" precision="FP32">
					<dim>1</dim>
					<dim>20</dim>
					<dim>256</dim>
				</port>
				<port id="1" precision="FP32">
					<dim>1</dim>
					<dim>1</dim>
					<dim>256</dim>
				</port>
			</input>
			<output>
				<port id="2" precision="FP32" names="/model/encoders/layers.1/self_attn/pe/norm/Mul_output_0">
					<dim>1</dim>
					<dim>20</dim>
					<dim>256</dim>
				</port>
			</output>
		</layer>
		<layer id="181" name="Constant_3288" type="Const" version="opset1">
			<data element_type="f32" shape="1, 1, 256" offset="6641840" size="1024" />
			<output>
				<port id="0" precision="FP32">
					<dim>1</dim>
					<dim>1</dim>
					<dim>256</dim>
				</port>
			</output>
		</layer>
		<layer id="182" name="/model/encoders/layers.1/self_attn/pe/norm/Add_1" type="Add" version="opset1">
			<data auto_broadcast="numpy" />
			<input>
				<port id="0" precision="FP32">
					<dim>1</dim>
					<dim>20</dim>
					<dim>256</dim>
				</port>
				<port id="1" precision="FP32">
					<dim>1</dim>
					<dim>1</dim>
					<dim>256</dim>
				</port>
			</input>
			<output>
				<port id="2" precision="FP32" names="/model/encoders/layers.1/self_attn/pe/norm/Add_1_output_0">
					<dim>1</dim>
					<dim>20</dim>
					<dim>256</dim>
				</port>
			</output>
		</layer>
		<layer id="183" name="/model/encoders/layers.1/self_attn/Add" type="Add" version="opset1">
			<data auto_broadcast="numpy" />
			<input>
				<port id="0" precision="FP32">
					<dim>1</dim>
					<dim>20</dim>
					<dim>256</dim>
				</port>
				<port id="1" precision="FP32">
					<dim>1</dim>
					<dim>20</dim>
					<dim>256</dim>
				</port>
			</input>
			<output>
				<port id="2" precision="FP32" names="/model/encoders/layers.1/self_attn/Add_output_0">
					<dim>1</dim>
					<dim>20</dim>
					<dim>256</dim>
				</port>
			</output>
		</layer>
		<layer id="184" name="Transpose_2795" type="Const" version="opset1">
			<data element_type="f32" shape="256, 256" offset="6642864" size="262144" />
			<output>
				<port id="0" precision="FP32">
					<dim>256</dim>
					<dim>256</dim>
				</port>
			</output>
		</layer>
		<layer id="185" name="/model/encoders/layers.1/self_attn/out/linear/MatMul" type="MatMul" version="opset1">
			<data transpose_a="false" transpose_b="true" />
			<input>
				<port id="0" precision="FP32">
					<dim>1</dim>
					<dim>20</dim>
					<dim>256</dim>
				</port>
				<port id="1" precision="FP32">
					<dim>256</dim>
					<dim>256</dim>
				</port>
			</input>
			<output>
				<port id="2" precision="FP32" names="/model/encoders/layers.1/self_attn/out/linear/MatMul_output_0">
					<dim>1</dim>
					<dim>20</dim>
					<dim>256</dim>
				</port>
			</output>
		</layer>
		<layer id="186" name="/model/encoders/layers.1/self_attn/out/linear/Add" type="Add" version="opset1">
			<data auto_broadcast="numpy" />
			<input>
				<port id="0" precision="FP32">
					<dim>1</dim>
					<dim>1</dim>
					<dim>256</dim>
				</port>
				<port id="1" precision="FP32">
					<dim>1</dim>
					<dim>20</dim>
					<dim>256</dim>
				</port>
			</input>
			<output>
				<port id="2" precision="FP32" names="/model/encoders/layers.1/self_attn/out/linear/Add_output_0">
					<dim>1</dim>
					<dim>20</dim>
					<dim>256</dim>
				</port>
			</output>
		</layer>
		<layer id="187" name="Constant_390" type="Const" version="opset1">
			<data element_type="i64" shape="1" offset="1063948" size="8" />
			<output>
				<port id="0" precision="I64">
					<dim>1</dim>
				</port>
			</output>
		</layer>
		<layer id="188" name="/model/encoders/layers.1/self_attn/out/norm/Div" type="MVN" version="opset6">
			<data eps="9.9999997473787516e-06" normalize_variance="true" eps_mode="INSIDE_SQRT" />
			<input>
				<port id="0" precision="FP32">
					<dim>1</dim>
					<dim>20</dim>
					<dim>256</dim>
				</port>
				<port id="1" precision="I64">
					<dim>1</dim>
				</port>
			</input>
			<output>
				<port id="2" precision="FP32" names="/model/encoders/layers.1/self_attn/out/norm/Div_output_0">
					<dim>1</dim>
					<dim>20</dim>
					<dim>256</dim>
				</port>
			</output>
		</layer>
		<layer id="189" name="Constant_3290" type="Const" version="opset1">
			<data element_type="f32" shape="1, 1, 256" offset="6905008" size="1024" />
			<output>
				<port id="0" precision="FP32">
					<dim>1</dim>
					<dim>1</dim>
					<dim>256</dim>
				</port>
			</output>
		</layer>
		<layer id="190" name="/model/encoders/layers.1/self_attn/out/norm/Mul" type="Multiply" version="opset1">
			<data auto_broadcast="numpy" />
			<input>
				<port id="0" precision="FP32">
					<dim>1</dim>
					<dim>20</dim>
					<dim>256</dim>
				</port>
				<port id="1" precision="FP32">
					<dim>1</dim>
					<dim>1</dim>
					<dim>256</dim>
				</port>
			</input>
			<output>
				<port id="2" precision="FP32" names="/model/encoders/layers.1/self_attn/out/norm/Mul_output_0">
					<dim>1</dim>
					<dim>20</dim>
					<dim>256</dim>
				</port>
			</output>
		</layer>
		<layer id="191" name="Constant_3291" type="Const" version="opset1">
			<data element_type="f32" shape="1, 1, 256" offset="6906032" size="1024" />
			<output>
				<port id="0" precision="FP32">
					<dim>1</dim>
					<dim>1</dim>
					<dim>256</dim>
				</port>
			</output>
		</layer>
		<layer id="192" name="/model/encoders/layers.1/self_attn/out/norm/Add_1" type="Add" version="opset1">
			<data auto_broadcast="numpy" />
			<input>
				<port id="0" precision="FP32">
					<dim>1</dim>
					<dim>20</dim>
					<dim>256</dim>
				</port>
				<port id="1" precision="FP32">
					<dim>1</dim>
					<dim>1</dim>
					<dim>256</dim>
				</port>
			</input>
			<output>
				<port id="2" precision="FP32" names="/model/encoders/layers.1/self_attn/out/norm/Add_1_output_0">
					<dim>1</dim>
					<dim>20</dim>
					<dim>256</dim>
				</port>
			</output>
		</layer>
		<layer id="193" name="/model/encoders/layers.1/Add" type="Add" version="opset1">
			<data auto_broadcast="numpy" />
			<input>
				<port id="0" precision="FP32">
					<dim>1</dim>
					<dim>20</dim>
					<dim>256</dim>
				</port>
				<port id="1" precision="FP32">
					<dim>1</dim>
					<dim>20</dim>
					<dim>256</dim>
				</port>
			</input>
			<output>
				<port id="2" precision="FP32" names="/model/encoders/layers.1/Add_output_0">
					<dim>1</dim>
					<dim>20</dim>
					<dim>256</dim>
				</port>
			</output>
		</layer>
		<layer id="194" name="Constant_404" type="Const" version="opset1">
			<data element_type="i64" shape="1" offset="1063948" size="8" />
			<output>
				<port id="0" precision="I64">
					<dim>1</dim>
				</port>
			</output>
		</layer>
		<layer id="195" name="/model/encoders/layers.1/norm1/Div" type="MVN" version="opset6">
			<data eps="9.9999997473787516e-06" normalize_variance="true" eps_mode="INSIDE_SQRT" />
			<input>
				<port id="0" precision="FP32">
					<dim>1</dim>
					<dim>20</dim>
					<dim>256</dim>
				</port>
				<port id="1" precision="I64">
					<dim>1</dim>
				</port>
			</input>
			<output>
				<port id="2" precision="FP32" names="/model/encoders/layers.1/norm1/Div_output_0">
					<dim>1</dim>
					<dim>20</dim>
					<dim>256</dim>
				</port>
			</output>
		</layer>
		<layer id="196" name="Constant_3292" type="Const" version="opset1">
			<data element_type="f32" shape="1, 1, 256" offset="6907056" size="1024" />
			<output>
				<port id="0" precision="FP32">
					<dim>1</dim>
					<dim>1</dim>
					<dim>256</dim>
				</port>
			</output>
		</layer>
		<layer id="197" name="/model/encoders/layers.1/norm1/Mul" type="Multiply" version="opset1">
			<data auto_broadcast="numpy" />
			<input>
				<port id="0" precision="FP32">
					<dim>1</dim>
					<dim>20</dim>
					<dim>256</dim>
				</port>
				<port id="1" precision="FP32">
					<dim>1</dim>
					<dim>1</dim>
					<dim>256</dim>
				</port>
			</input>
			<output>
				<port id="2" precision="FP32" names="/model/encoders/layers.1/norm1/Mul_output_0">
					<dim>1</dim>
					<dim>20</dim>
					<dim>256</dim>
				</port>
			</output>
		</layer>
		<layer id="198" name="Constant_3293" type="Const" version="opset1">
			<data element_type="f32" shape="1, 1, 256" offset="6908080" size="1024" />
			<output>
				<port id="0" precision="FP32">
					<dim>1</dim>
					<dim>1</dim>
					<dim>256</dim>
				</port>
			</output>
		</layer>
		<layer id="199" name="/model/encoders/layers.1/norm1/Add_1" type="Add" version="opset1">
			<data auto_broadcast="numpy" />
			<input>
				<port id="0" precision="FP32">
					<dim>1</dim>
					<dim>20</dim>
					<dim>256</dim>
				</port>
				<port id="1" precision="FP32">
					<dim>1</dim>
					<dim>1</dim>
					<dim>256</dim>
				</port>
			</input>
			<output>
				<port id="2" precision="FP32" names="/model/encoders/layers.1/norm1/Add_1_output_0">
					<dim>1</dim>
					<dim>20</dim>
					<dim>256</dim>
				</port>
			</output>
		</layer>
		<layer id="200" name="Constant_3297" type="Const" version="opset1">
			<data element_type="f32" shape="1, 1, 256" offset="6909104" size="1024" />
			<output>
				<port id="0" precision="FP32">
					<dim>1</dim>
					<dim>1</dim>
					<dim>256</dim>
				</port>
			</output>
		</layer>
		<layer id="201" name="Constant_3294" type="Const" version="opset1">
			<data element_type="f32" shape="1, 1, 512" offset="6910128" size="2048" />
			<output>
				<port id="0" precision="FP32">
					<dim>1</dim>
					<dim>1</dim>
					<dim>512</dim>
				</port>
			</output>
		</layer>
		<layer id="202" name="Transpose_2822" type="Const" version="opset1">
			<data element_type="f32" shape="512, 256" offset="6912176" size="524288" />
			<output>
				<port id="0" precision="FP32">
					<dim>512</dim>
					<dim>256</dim>
				</port>
			</output>
		</layer>
		<layer id="203" name="/model/encoders/layers.1/ffn/linear1/linear/MatMul" type="MatMul" version="opset1">
			<data transpose_a="false" transpose_b="true" />
			<input>
				<port id="0" precision="FP32">
					<dim>1</dim>
					<dim>20</dim>
					<dim>256</dim>
				</port>
				<port id="1" precision="FP32">
					<dim>512</dim>
					<dim>256</dim>
				</port>
			</input>
			<output>
				<port id="2" precision="FP32" names="/model/encoders/layers.1/ffn/linear1/linear/MatMul_output_0">
					<dim>1</dim>
					<dim>20</dim>
					<dim>512</dim>
				</port>
			</output>
		</layer>
		<layer id="204" name="/model/encoders/layers.1/ffn/linear1/linear/Add" type="Add" version="opset1">
			<data auto_broadcast="numpy" />
			<input>
				<port id="0" precision="FP32">
					<dim>1</dim>
					<dim>1</dim>
					<dim>512</dim>
				</port>
				<port id="1" precision="FP32">
					<dim>1</dim>
					<dim>20</dim>
					<dim>512</dim>
				</port>
			</input>
			<output>
				<port id="2" precision="FP32" names="/model/encoders/layers.1/ffn/linear1/linear/Add_output_0">
					<dim>1</dim>
					<dim>20</dim>
					<dim>512</dim>
				</port>
			</output>
		</layer>
		<layer id="205" name="Constant_419" type="Const" version="opset1">
			<data element_type="i64" shape="1" offset="1063948" size="8" />
			<output>
				<port id="0" precision="I64">
					<dim>1</dim>
				</port>
			</output>
		</layer>
		<layer id="206" name="/model/encoders/layers.1/ffn/linear1/norm/Div" type="MVN" version="opset6">
			<data eps="9.9999997473787516e-06" normalize_variance="true" eps_mode="INSIDE_SQRT" />
			<input>
				<port id="0" precision="FP32">
					<dim>1</dim>
					<dim>20</dim>
					<dim>512</dim>
				</port>
				<port id="1" precision="I64">
					<dim>1</dim>
				</port>
			</input>
			<output>
				<port id="2" precision="FP32" names="/model/encoders/layers.1/ffn/linear1/norm/Div_output_0">
					<dim>1</dim>
					<dim>20</dim>
					<dim>512</dim>
				</port>
			</output>
		</layer>
		<layer id="207" name="Constant_3295" type="Const" version="opset1">
			<data element_type="f32" shape="1, 1, 512" offset="7436464" size="2048" />
			<output>
				<port id="0" precision="FP32">
					<dim>1</dim>
					<dim>1</dim>
					<dim>512</dim>
				</port>
			</output>
		</layer>
		<layer id="208" name="/model/encoders/layers.1/ffn/linear1/norm/Mul" type="Multiply" version="opset1">
			<data auto_broadcast="numpy" />
			<input>
				<port id="0" precision="FP32">
					<dim>1</dim>
					<dim>20</dim>
					<dim>512</dim>
				</port>
				<port id="1" precision="FP32">
					<dim>1</dim>
					<dim>1</dim>
					<dim>512</dim>
				</port>
			</input>
			<output>
				<port id="2" precision="FP32" names="/model/encoders/layers.1/ffn/linear1/norm/Mul_output_0">
					<dim>1</dim>
					<dim>20</dim>
					<dim>512</dim>
				</port>
			</output>
		</layer>
		<layer id="209" name="Constant_3296" type="Const" version="opset1">
			<data element_type="f32" shape="1, 1, 512" offset="7438512" size="2048" />
			<output>
				<port id="0" precision="FP32">
					<dim>1</dim>
					<dim>1</dim>
					<dim>512</dim>
				</port>
			</output>
		</layer>
		<layer id="210" name="/model/encoders/layers.1/ffn/linear1/norm/Add_1" type="Add" version="opset1">
			<data auto_broadcast="numpy" />
			<input>
				<port id="0" precision="FP32">
					<dim>1</dim>
					<dim>20</dim>
					<dim>512</dim>
				</port>
				<port id="1" precision="FP32">
					<dim>1</dim>
					<dim>1</dim>
					<dim>512</dim>
				</port>
			</input>
			<output>
				<port id="2" precision="FP32" names="/model/encoders/layers.1/ffn/linear1/norm/Add_1_output_0">
					<dim>1</dim>
					<dim>20</dim>
					<dim>512</dim>
				</port>
			</output>
		</layer>
		<layer id="211" name="/model/encoders/layers.1/ffn/linear1/act/Mul" type="Swish" version="opset4">
			<input>
				<port id="0" precision="FP32">
					<dim>1</dim>
					<dim>20</dim>
					<dim>512</dim>
				</port>
			</input>
			<output>
				<port id="1" precision="FP32" names="/model/encoders/layers.1/ffn/linear1/act/Mul_output_0">
					<dim>1</dim>
					<dim>20</dim>
					<dim>512</dim>
				</port>
			</output>
		</layer>
		<layer id="212" name="Transpose_2839" type="Const" version="opset1">
			<data element_type="f32" shape="256, 512" offset="7440560" size="524288" />
			<output>
				<port id="0" precision="FP32">
					<dim>256</dim>
					<dim>512</dim>
				</port>
			</output>
		</layer>
		<layer id="213" name="/model/encoders/layers.1/ffn/linear2/linear/MatMul" type="MatMul" version="opset1">
			<data transpose_a="false" transpose_b="true" />
			<input>
				<port id="0" precision="FP32">
					<dim>1</dim>
					<dim>20</dim>
					<dim>512</dim>
				</port>
				<port id="1" precision="FP32">
					<dim>256</dim>
					<dim>512</dim>
				</port>
			</input>
			<output>
				<port id="2" precision="FP32" names="/model/encoders/layers.1/ffn/linear2/linear/MatMul_output_0">
					<dim>1</dim>
					<dim>20</dim>
					<dim>256</dim>
				</port>
			</output>
		</layer>
		<layer id="214" name="/model/encoders/layers.1/ffn/linear2/linear/Add" type="Add" version="opset1">
			<data auto_broadcast="numpy" />
			<input>
				<port id="0" precision="FP32">
					<dim>1</dim>
					<dim>1</dim>
					<dim>256</dim>
				</port>
				<port id="1" precision="FP32">
					<dim>1</dim>
					<dim>20</dim>
					<dim>256</dim>
				</port>
			</input>
			<output>
				<port id="2" precision="FP32" names="/model/encoders/layers.1/ffn/linear2/linear/Add_output_0">
					<dim>1</dim>
					<dim>20</dim>
					<dim>256</dim>
				</port>
			</output>
		</layer>
		<layer id="215" name="Constant_436" type="Const" version="opset1">
			<data element_type="i64" shape="1" offset="1063948" size="8" />
			<output>
				<port id="0" precision="I64">
					<dim>1</dim>
				</port>
			</output>
		</layer>
		<layer id="216" name="/model/encoders/layers.1/ffn/linear2/norm/Div" type="MVN" version="opset6">
			<data eps="9.9999997473787516e-06" normalize_variance="true" eps_mode="INSIDE_SQRT" />
			<input>
				<port id="0" precision="FP32">
					<dim>1</dim>
					<dim>20</dim>
					<dim>256</dim>
				</port>
				<port id="1" precision="I64">
					<dim>1</dim>
				</port>
			</input>
			<output>
				<port id="2" precision="FP32" names="/model/encoders/layers.1/ffn/linear2/norm/Div_output_0">
					<dim>1</dim>
					<dim>20</dim>
					<dim>256</dim>
				</port>
			</output>
		</layer>
		<layer id="217" name="Constant_3298" type="Const" version="opset1">
			<data element_type="f32" shape="1, 1, 256" offset="7964848" size="1024" />
			<output>
				<port id="0" precision="FP32">
					<dim>1</dim>
					<dim>1</dim>
					<dim>256</dim>
				</port>
			</output>
		</layer>
		<layer id="218" name="/model/encoders/layers.1/ffn/linear2/norm/Mul" type="Multiply" version="opset1">
			<data auto_broadcast="numpy" />
			<input>
				<port id="0" precision="FP32">
					<dim>1</dim>
					<dim>20</dim>
					<dim>256</dim>
				</port>
				<port id="1" precision="FP32">
					<dim>1</dim>
					<dim>1</dim>
					<dim>256</dim>
				</port>
			</input>
			<output>
				<port id="2" precision="FP32" names="/model/encoders/layers.1/ffn/linear2/norm/Mul_output_0">
					<dim>1</dim>
					<dim>20</dim>
					<dim>256</dim>
				</port>
			</output>
		</layer>
		<layer id="219" name="Constant_3299" type="Const" version="opset1">
			<data element_type="f32" shape="1, 1, 256" offset="7965872" size="1024" />
			<output>
				<port id="0" precision="FP32">
					<dim>1</dim>
					<dim>1</dim>
					<dim>256</dim>
				</port>
			</output>
		</layer>
		<layer id="220" name="/model/encoders/layers.1/ffn/linear2/norm/Add_1" type="Add" version="opset1">
			<data auto_broadcast="numpy" />
			<input>
				<port id="0" precision="FP32">
					<dim>1</dim>
					<dim>20</dim>
					<dim>256</dim>
				</port>
				<port id="1" precision="FP32">
					<dim>1</dim>
					<dim>1</dim>
					<dim>256</dim>
				</port>
			</input>
			<output>
				<port id="2" precision="FP32" names="/model/encoders/layers.1/ffn/linear2/norm/Add_1_output_0">
					<dim>1</dim>
					<dim>20</dim>
					<dim>256</dim>
				</port>
			</output>
		</layer>
		<layer id="221" name="/model/encoders/layers.1/Add_1" type="Add" version="opset1">
			<data auto_broadcast="numpy" />
			<input>
				<port id="0" precision="FP32">
					<dim>1</dim>
					<dim>20</dim>
					<dim>256</dim>
				</port>
				<port id="1" precision="FP32">
					<dim>1</dim>
					<dim>20</dim>
					<dim>256</dim>
				</port>
			</input>
			<output>
				<port id="2" precision="FP32" names="/model/encoders/layers.1/Add_1_output_0">
					<dim>1</dim>
					<dim>20</dim>
					<dim>256</dim>
				</port>
			</output>
		</layer>
		<layer id="222" name="Constant_450" type="Const" version="opset1">
			<data element_type="i64" shape="1" offset="1063948" size="8" />
			<output>
				<port id="0" precision="I64">
					<dim>1</dim>
				</port>
			</output>
		</layer>
		<layer id="223" name="/model/encoders/layers.1/norm2/Div" type="MVN" version="opset6">
			<data eps="9.9999997473787516e-06" normalize_variance="true" eps_mode="INSIDE_SQRT" />
			<input>
				<port id="0" precision="FP32">
					<dim>1</dim>
					<dim>20</dim>
					<dim>256</dim>
				</port>
				<port id="1" precision="I64">
					<dim>1</dim>
				</port>
			</input>
			<output>
				<port id="2" precision="FP32" names="/model/encoders/layers.1/norm2/Div_output_0">
					<dim>1</dim>
					<dim>20</dim>
					<dim>256</dim>
				</port>
			</output>
		</layer>
		<layer id="224" name="Constant_3300" type="Const" version="opset1">
			<data element_type="f32" shape="1, 1, 256" offset="7966896" size="1024" />
			<output>
				<port id="0" precision="FP32">
					<dim>1</dim>
					<dim>1</dim>
					<dim>256</dim>
				</port>
			</output>
		</layer>
		<layer id="225" name="/model/encoders/layers.1/norm2/Mul" type="Multiply" version="opset1">
			<data auto_broadcast="numpy" />
			<input>
				<port id="0" precision="FP32">
					<dim>1</dim>
					<dim>20</dim>
					<dim>256</dim>
				</port>
				<port id="1" precision="FP32">
					<dim>1</dim>
					<dim>1</dim>
					<dim>256</dim>
				</port>
			</input>
			<output>
				<port id="2" precision="FP32" names="/model/encoders/layers.1/norm2/Mul_output_0">
					<dim>1</dim>
					<dim>20</dim>
					<dim>256</dim>
				</port>
			</output>
		</layer>
		<layer id="226" name="Constant_3301" type="Const" version="opset1">
			<data element_type="f32" shape="1, 1, 256" offset="7967920" size="1024" />
			<output>
				<port id="0" precision="FP32">
					<dim>1</dim>
					<dim>1</dim>
					<dim>256</dim>
				</port>
			</output>
		</layer>
		<layer id="227" name="/model/encoders/layers.1/norm2/Add_1" type="Add" version="opset1">
			<data auto_broadcast="numpy" />
			<input>
				<port id="0" precision="FP32">
					<dim>1</dim>
					<dim>20</dim>
					<dim>256</dim>
				</port>
				<port id="1" precision="FP32">
					<dim>1</dim>
					<dim>1</dim>
					<dim>256</dim>
				</port>
			</input>
			<output>
				<port id="2" precision="FP32" names="/model/encoders/layers.1/norm2/Add_1_output_0">
					<dim>1</dim>
					<dim>20</dim>
					<dim>256</dim>
				</port>
			</output>
		</layer>
		<layer id="228" name="Constant_3315" type="Const" version="opset1">
			<data element_type="f32" shape="1, 1, 256" offset="7968944" size="1024" />
			<output>
				<port id="0" precision="FP32">
					<dim>1</dim>
					<dim>1</dim>
					<dim>256</dim>
				</port>
			</output>
		</layer>
		<layer id="229" name="Constant_3302" type="Const" version="opset1">
			<data element_type="f32" shape="1, 1, 1024" offset="7969968" size="4096" />
			<output>
				<port id="0" precision="FP32">
					<dim>1</dim>
					<dim>1</dim>
					<dim>1024</dim>
				</port>
			</output>
		</layer>
		<layer id="230" name="Transpose_2866" type="Const" version="opset1">
			<data element_type="f32" shape="1024, 256" offset="7974064" size="1048576" />
			<output>
				<port id="0" precision="FP32">
					<dim>1024</dim>
					<dim>256</dim>
				</port>
			</output>
		</layer>
		<layer id="231" name="/model/encoders/layers.2/self_attn/wq/linear/MatMul" type="MatMul" version="opset1">
			<data transpose_a="false" transpose_b="true" />
			<input>
				<port id="0" precision="FP32">
					<dim>1</dim>
					<dim>20</dim>
					<dim>256</dim>
				</port>
				<port id="1" precision="FP32">
					<dim>1024</dim>
					<dim>256</dim>
				</port>
			</input>
			<output>
				<port id="2" precision="FP32" names="/model/encoders/layers.2/self_attn/wq/linear/MatMul_output_0">
					<dim>1</dim>
					<dim>20</dim>
					<dim>1024</dim>
				</port>
			</output>
		</layer>
		<layer id="232" name="/model/encoders/layers.2/self_attn/wq/linear/Add" type="Add" version="opset1">
			<data auto_broadcast="numpy" />
			<input>
				<port id="0" precision="FP32">
					<dim>1</dim>
					<dim>1</dim>
					<dim>1024</dim>
				</port>
				<port id="1" precision="FP32">
					<dim>1</dim>
					<dim>20</dim>
					<dim>1024</dim>
				</port>
			</input>
			<output>
				<port id="2" precision="FP32" names="/model/encoders/layers.2/self_attn/wq/linear/Add_output_0">
					<dim>1</dim>
					<dim>20</dim>
					<dim>1024</dim>
				</port>
			</output>
		</layer>
		<layer id="233" name="Constant_465" type="Const" version="opset1">
			<data element_type="i64" shape="1" offset="1063948" size="8" />
			<output>
				<port id="0" precision="I64">
					<dim>1</dim>
				</port>
			</output>
		</layer>
		<layer id="234" name="/model/encoders/layers.2/self_attn/wq/norm/Div" type="MVN" version="opset6">
			<data eps="9.9999997473787516e-06" normalize_variance="true" eps_mode="INSIDE_SQRT" />
			<input>
				<port id="0" precision="FP32">
					<dim>1</dim>
					<dim>20</dim>
					<dim>1024</dim>
				</port>
				<port id="1" precision="I64">
					<dim>1</dim>
				</port>
			</input>
			<output>
				<port id="2" precision="FP32" names="/model/encoders/layers.2/self_attn/wq/norm/Div_output_0">
					<dim>1</dim>
					<dim>20</dim>
					<dim>1024</dim>
				</port>
			</output>
		</layer>
		<layer id="235" name="Constant_3303" type="Const" version="opset1">
			<data element_type="f32" shape="1, 1, 1024" offset="9022640" size="4096" />
			<output>
				<port id="0" precision="FP32">
					<dim>1</dim>
					<dim>1</dim>
					<dim>1024</dim>
				</port>
			</output>
		</layer>
		<layer id="236" name="/model/encoders/layers.2/self_attn/wq/norm/Mul" type="Multiply" version="opset1">
			<data auto_broadcast="numpy" />
			<input>
				<port id="0" precision="FP32">
					<dim>1</dim>
					<dim>20</dim>
					<dim>1024</dim>
				</port>
				<port id="1" precision="FP32">
					<dim>1</dim>
					<dim>1</dim>
					<dim>1024</dim>
				</port>
			</input>
			<output>
				<port id="2" precision="FP32" names="/model/encoders/layers.2/self_attn/wq/norm/Mul_output_0">
					<dim>1</dim>
					<dim>20</dim>
					<dim>1024</dim>
				</port>
			</output>
		</layer>
		<layer id="237" name="Constant_3304" type="Const" version="opset1">
			<data element_type="f32" shape="1, 1, 1024" offset="9026736" size="4096" />
			<output>
				<port id="0" precision="FP32">
					<dim>1</dim>
					<dim>1</dim>
					<dim>1024</dim>
				</port>
			</output>
		</layer>
		<layer id="238" name="/model/encoders/layers.2/self_attn/wq/norm/Add_1" type="Add" version="opset1">
			<data auto_broadcast="numpy" />
			<input>
				<port id="0" precision="FP32">
					<dim>1</dim>
					<dim>20</dim>
					<dim>1024</dim>
				</port>
				<port id="1" precision="FP32">
					<dim>1</dim>
					<dim>1</dim>
					<dim>1024</dim>
				</port>
			</input>
			<output>
				<port id="2" precision="FP32" names="/model/encoders/layers.2/self_attn/wq/norm/Add_1_output_0">
					<dim>1</dim>
					<dim>20</dim>
					<dim>1024</dim>
				</port>
			</output>
		</layer>
		<layer id="239" name="/model/encoders/layers.2/self_attn/Constant" type="Const" version="opset1">
			<data element_type="i64" shape="4" offset="1072148" size="32" />
			<output>
				<port id="0" precision="I64" names="/model/encoders/layers.2/self_attn/Constant_output_0">
					<dim>4</dim>
				</port>
			</output>
		</layer>
		<layer id="240" name="/model/encoders/layers.2/self_attn/Reshape" type="Reshape" version="opset1">
			<data special_zero="true" />
			<input>
				<port id="0" precision="FP32">
					<dim>1</dim>
					<dim>20</dim>
					<dim>1024</dim>
				</port>
				<port id="1" precision="I64">
					<dim>4</dim>
				</port>
			</input>
			<output>
				<port id="2" precision="FP32" names="/model/encoders/layers.2/self_attn/Reshape_output_0">
					<dim>1</dim>
					<dim>20</dim>
					<dim>8</dim>
					<dim>128</dim>
				</port>
			</output>
		</layer>
		<layer id="241" name="Constant_481" type="Const" version="opset1">
			<data element_type="i64" shape="4" offset="1072180" size="32" />
			<output>
				<port id="0" precision="I64">
					<dim>4</dim>
				</port>
			</output>
		</layer>
		<layer id="242" name="/model/encoders/layers.2/self_attn/Transpose" type="Transpose" version="opset1">
			<input>
				<port id="0" precision="FP32">
					<dim>1</dim>
					<dim>20</dim>
					<dim>8</dim>
					<dim>128</dim>
				</port>
				<port id="1" precision="I64">
					<dim>4</dim>
				</port>
			</input>
			<output>
				<port id="2" precision="FP32" names="/model/encoders/layers.2/self_attn/Transpose_output_0">
					<dim>1</dim>
					<dim>8</dim>
					<dim>20</dim>
					<dim>128</dim>
				</port>
			</output>
		</layer>
		<layer id="243" name="Constant_3305" type="Const" version="opset1">
			<data element_type="f32" shape="1, 1, 1024" offset="9030832" size="4096" />
			<output>
				<port id="0" precision="FP32">
					<dim>1</dim>
					<dim>1</dim>
					<dim>1024</dim>
				</port>
			</output>
		</layer>
		<layer id="244" name="Transpose_2882" type="Const" version="opset1">
			<data element_type="f32" shape="1024, 256" offset="9034928" size="1048576" />
			<output>
				<port id="0" precision="FP32">
					<dim>1024</dim>
					<dim>256</dim>
				</port>
			</output>
		</layer>
		<layer id="245" name="/model/encoders/layers.2/self_attn/wk/linear/MatMul" type="MatMul" version="opset1">
			<data transpose_a="false" transpose_b="true" />
			<input>
				<port id="0" precision="FP32">
					<dim>1</dim>
					<dim>20</dim>
					<dim>256</dim>
				</port>
				<port id="1" precision="FP32">
					<dim>1024</dim>
					<dim>256</dim>
				</port>
			</input>
			<output>
				<port id="2" precision="FP32" names="/model/encoders/layers.2/self_attn/wk/linear/MatMul_output_0">
					<dim>1</dim>
					<dim>20</dim>
					<dim>1024</dim>
				</port>
			</output>
		</layer>
		<layer id="246" name="/model/encoders/layers.2/self_attn/wk/linear/Add" type="Add" version="opset1">
			<data auto_broadcast="numpy" />
			<input>
				<port id="0" precision="FP32">
					<dim>1</dim>
					<dim>1</dim>
					<dim>1024</dim>
				</port>
				<port id="1" precision="FP32">
					<dim>1</dim>
					<dim>20</dim>
					<dim>1024</dim>
				</port>
			</input>
			<output>
				<port id="2" precision="FP32" names="/model/encoders/layers.2/self_attn/wk/linear/Add_output_0">
					<dim>1</dim>
					<dim>20</dim>
					<dim>1024</dim>
				</port>
			</output>
		</layer>
		<layer id="247" name="Constant_485" type="Const" version="opset1">
			<data element_type="i64" shape="1" offset="1063948" size="8" />
			<output>
				<port id="0" precision="I64">
					<dim>1</dim>
				</port>
			</output>
		</layer>
		<layer id="248" name="/model/encoders/layers.2/self_attn/wk/norm/Div" type="MVN" version="opset6">
			<data eps="9.9999997473787516e-06" normalize_variance="true" eps_mode="INSIDE_SQRT" />
			<input>
				<port id="0" precision="FP32">
					<dim>1</dim>
					<dim>20</dim>
					<dim>1024</dim>
				</port>
				<port id="1" precision="I64">
					<dim>1</dim>
				</port>
			</input>
			<output>
				<port id="2" precision="FP32" names="/model/encoders/layers.2/self_attn/wk/norm/Div_output_0">
					<dim>1</dim>
					<dim>20</dim>
					<dim>1024</dim>
				</port>
			</output>
		</layer>
		<layer id="249" name="Constant_3306" type="Const" version="opset1">
			<data element_type="f32" shape="1, 1, 1024" offset="10083504" size="4096" />
			<output>
				<port id="0" precision="FP32">
					<dim>1</dim>
					<dim>1</dim>
					<dim>1024</dim>
				</port>
			</output>
		</layer>
		<layer id="250" name="/model/encoders/layers.2/self_attn/wk/norm/Mul" type="Multiply" version="opset1">
			<data auto_broadcast="numpy" />
			<input>
				<port id="0" precision="FP32">
					<dim>1</dim>
					<dim>20</dim>
					<dim>1024</dim>
				</port>
				<port id="1" precision="FP32">
					<dim>1</dim>
					<dim>1</dim>
					<dim>1024</dim>
				</port>
			</input>
			<output>
				<port id="2" precision="FP32" names="/model/encoders/layers.2/self_attn/wk/norm/Mul_output_0">
					<dim>1</dim>
					<dim>20</dim>
					<dim>1024</dim>
				</port>
			</output>
		</layer>
		<layer id="251" name="Constant_3307" type="Const" version="opset1">
			<data element_type="f32" shape="1, 1, 1024" offset="10087600" size="4096" />
			<output>
				<port id="0" precision="FP32">
					<dim>1</dim>
					<dim>1</dim>
					<dim>1024</dim>
				</port>
			</output>
		</layer>
		<layer id="252" name="/model/encoders/layers.2/self_attn/wk/norm/Add_1" type="Add" version="opset1">
			<data auto_broadcast="numpy" />
			<input>
				<port id="0" precision="FP32">
					<dim>1</dim>
					<dim>20</dim>
					<dim>1024</dim>
				</port>
				<port id="1" precision="FP32">
					<dim>1</dim>
					<dim>1</dim>
					<dim>1024</dim>
				</port>
			</input>
			<output>
				<port id="2" precision="FP32" names="/model/encoders/layers.2/self_attn/wk/norm/Add_1_output_0">
					<dim>1</dim>
					<dim>20</dim>
					<dim>1024</dim>
				</port>
			</output>
		</layer>
		<layer id="253" name="/model/encoders/layers.2/self_attn/Constant_1" type="Const" version="opset1">
			<data element_type="i64" shape="4" offset="1072148" size="32" />
			<output>
				<port id="0" precision="I64" names="/model/encoders/layers.2/self_attn/Constant_1_output_0">
					<dim>4</dim>
				</port>
			</output>
		</layer>
		<layer id="254" name="/model/encoders/layers.2/self_attn/Reshape_1" type="Reshape" version="opset1">
			<data special_zero="true" />
			<input>
				<port id="0" precision="FP32">
					<dim>1</dim>
					<dim>20</dim>
					<dim>1024</dim>
				</port>
				<port id="1" precision="I64">
					<dim>4</dim>
				</port>
			</input>
			<output>
				<port id="2" precision="FP32" names="/model/encoders/layers.2/self_attn/Reshape_1_output_0">
					<dim>1</dim>
					<dim>20</dim>
					<dim>8</dim>
					<dim>128</dim>
				</port>
			</output>
		</layer>
		<layer id="255" name="Constant_518" type="Const" version="opset1">
			<data element_type="i64" shape="4" offset="2133076" size="32" />
			<output>
				<port id="0" precision="I64">
					<dim>4</dim>
				</port>
			</output>
		</layer>
		<layer id="256" name="/model/encoders/layers.2/self_attn/Transpose_2" type="Transpose" version="opset1">
			<input>
				<port id="0" precision="FP32">
					<dim>1</dim>
					<dim>20</dim>
					<dim>8</dim>
					<dim>128</dim>
				</port>
				<port id="1" precision="I64">
					<dim>4</dim>
				</port>
			</input>
			<output>
				<port id="2" precision="FP32" names="/model/encoders/layers.2/self_attn/Transpose_2_output_0">
					<dim>1</dim>
					<dim>8</dim>
					<dim>128</dim>
					<dim>20</dim>
				</port>
			</output>
		</layer>
		<layer id="257" name="Constant_3308" type="Const" version="opset1">
			<data element_type="f32" shape="1, 1, 1, 1" offset="2133108" size="4" />
			<output>
				<port id="0" precision="FP32">
					<dim>1</dim>
					<dim>1</dim>
					<dim>1</dim>
					<dim>1</dim>
				</port>
			</output>
		</layer>
		<layer id="258" name="Multiply_3192" type="Multiply" version="opset1">
			<data auto_broadcast="numpy" />
			<input>
				<port id="0" precision="FP32">
					<dim>1</dim>
					<dim>8</dim>
					<dim>128</dim>
					<dim>20</dim>
				</port>
				<port id="1" precision="FP32">
					<dim>1</dim>
					<dim>1</dim>
					<dim>1</dim>
					<dim>1</dim>
				</port>
			</input>
			<output>
				<port id="2" precision="FP32">
					<dim>1</dim>
					<dim>8</dim>
					<dim>128</dim>
					<dim>20</dim>
				</port>
			</output>
		</layer>
		<layer id="259" name="/model/encoders/layers.2/self_attn/Div" type="MatMul" version="opset1">
			<data transpose_a="false" transpose_b="false" />
			<input>
				<port id="0" precision="FP32">
					<dim>1</dim>
					<dim>8</dim>
					<dim>20</dim>
					<dim>128</dim>
				</port>
				<port id="1" precision="FP32">
					<dim>1</dim>
					<dim>8</dim>
					<dim>128</dim>
					<dim>20</dim>
				</port>
			</input>
			<output>
				<port id="2" precision="FP32" names="/model/encoders/layers.2/self_attn/Div_output_0">
					<dim>1</dim>
					<dim>8</dim>
					<dim>20</dim>
					<dim>20</dim>
				</port>
			</output>
		</layer>
		<layer id="260" name="/model/encoders/layers.2/self_attn/Softmax" type="SoftMax" version="opset8">
			<data axis="-1" />
			<input>
				<port id="0" precision="FP32">
					<dim>1</dim>
					<dim>8</dim>
					<dim>20</dim>
					<dim>20</dim>
				</port>
			</input>
			<output>
				<port id="1" precision="FP32" names="/model/encoders/layers.2/self_attn/Softmax_output_0">
					<dim>1</dim>
					<dim>8</dim>
					<dim>20</dim>
					<dim>20</dim>
				</port>
			</output>
		</layer>
		<layer id="261" name="Constant_3309" type="Const" version="opset1">
			<data element_type="f32" shape="1, 1, 256" offset="10091696" size="1024" />
			<output>
				<port id="0" precision="FP32">
					<dim>1</dim>
					<dim>1</dim>
					<dim>256</dim>
				</port>
			</output>
		</layer>
		<layer id="262" name="Transpose_2898" type="Const" version="opset1">
			<data element_type="f32" shape="256, 256" offset="10092720" size="262144" />
			<output>
				<port id="0" precision="FP32">
					<dim>256</dim>
					<dim>256</dim>
				</port>
			</output>
		</layer>
		<layer id="263" name="/model/encoders/layers.2/self_attn/wv/linear/MatMul" type="MatMul" version="opset1">
			<data transpose_a="false" transpose_b="true" />
			<input>
				<port id="0" precision="FP32">
					<dim>1</dim>
					<dim>20</dim>
					<dim>256</dim>
				</port>
				<port id="1" precision="FP32">
					<dim>256</dim>
					<dim>256</dim>
				</port>
			</input>
			<output>
				<port id="2" precision="FP32" names="/model/encoders/layers.2/self_attn/wv/linear/MatMul_output_0">
					<dim>1</dim>
					<dim>20</dim>
					<dim>256</dim>
				</port>
			</output>
		</layer>
		<layer id="264" name="/model/encoders/layers.2/self_attn/wv/linear/Add" type="Add" version="opset1">
			<data auto_broadcast="numpy" />
			<input>
				<port id="0" precision="FP32">
					<dim>1</dim>
					<dim>1</dim>
					<dim>256</dim>
				</port>
				<port id="1" precision="FP32">
					<dim>1</dim>
					<dim>20</dim>
					<dim>256</dim>
				</port>
			</input>
			<output>
				<port id="2" precision="FP32" names="/model/encoders/layers.2/self_attn/wv/linear/Add_output_0">
					<dim>1</dim>
					<dim>20</dim>
					<dim>256</dim>
				</port>
			</output>
		</layer>
		<layer id="265" name="Constant_501" type="Const" version="opset1">
			<data element_type="i64" shape="1" offset="1063948" size="8" />
			<output>
				<port id="0" precision="I64">
					<dim>1</dim>
				</port>
			</output>
		</layer>
		<layer id="266" name="/model/encoders/layers.2/self_attn/wv/norm/Div" type="MVN" version="opset6">
			<data eps="9.9999997473787516e-06" normalize_variance="true" eps_mode="INSIDE_SQRT" />
			<input>
				<port id="0" precision="FP32">
					<dim>1</dim>
					<dim>20</dim>
					<dim>256</dim>
				</port>
				<port id="1" precision="I64">
					<dim>1</dim>
				</port>
			</input>
			<output>
				<port id="2" precision="FP32" names="/model/encoders/layers.2/self_attn/wv/norm/Div_output_0">
					<dim>1</dim>
					<dim>20</dim>
					<dim>256</dim>
				</port>
			</output>
		</layer>
		<layer id="267" name="Constant_3310" type="Const" version="opset1">
			<data element_type="f32" shape="1, 1, 256" offset="10354864" size="1024" />
			<output>
				<port id="0" precision="FP32">
					<dim>1</dim>
					<dim>1</dim>
					<dim>256</dim>
				</port>
			</output>
		</layer>
		<layer id="268" name="/model/encoders/layers.2/self_attn/wv/norm/Mul" type="Multiply" version="opset1">
			<data auto_broadcast="numpy" />
			<input>
				<port id="0" precision="FP32">
					<dim>1</dim>
					<dim>20</dim>
					<dim>256</dim>
				</port>
				<port id="1" precision="FP32">
					<dim>1</dim>
					<dim>1</dim>
					<dim>256</dim>
				</port>
			</input>
			<output>
				<port id="2" precision="FP32" names="/model/encoders/layers.2/self_attn/wv/norm/Mul_output_0">
					<dim>1</dim>
					<dim>20</dim>
					<dim>256</dim>
				</port>
			</output>
		</layer>
		<layer id="269" name="Constant_3311" type="Const" version="opset1">
			<data element_type="f32" shape="1, 1, 256" offset="10355888" size="1024" />
			<output>
				<port id="0" precision="FP32">
					<dim>1</dim>
					<dim>1</dim>
					<dim>256</dim>
				</port>
			</output>
		</layer>
		<layer id="270" name="/model/encoders/layers.2/self_attn/wv/norm/Add_1" type="Add" version="opset1">
			<data auto_broadcast="numpy" />
			<input>
				<port id="0" precision="FP32">
					<dim>1</dim>
					<dim>20</dim>
					<dim>256</dim>
				</port>
				<port id="1" precision="FP32">
					<dim>1</dim>
					<dim>1</dim>
					<dim>256</dim>
				</port>
			</input>
			<output>
				<port id="2" precision="FP32" names="/model/encoders/layers.2/self_attn/wv/norm/Add_1_output_0">
					<dim>1</dim>
					<dim>20</dim>
					<dim>256</dim>
				</port>
			</output>
		</layer>
		<layer id="271" name="/model/encoders/layers.2/self_attn/Constant_2" type="Const" version="opset1">
			<data element_type="i64" shape="4" offset="2398328" size="32" />
			<output>
				<port id="0" precision="I64" names="/model/encoders/layers.2/self_attn/Constant_2_output_0">
					<dim>4</dim>
				</port>
			</output>
		</layer>
		<layer id="272" name="/model/encoders/layers.2/self_attn/Reshape_2" type="Reshape" version="opset1">
			<data special_zero="true" />
			<input>
				<port id="0" precision="FP32">
					<dim>1</dim>
					<dim>20</dim>
					<dim>256</dim>
				</port>
				<port id="1" precision="I64">
					<dim>4</dim>
				</port>
			</input>
			<output>
				<port id="2" precision="FP32" names="/model/encoders/layers.2/self_attn/Reshape_2_output_0">
					<dim>1</dim>
					<dim>20</dim>
					<dim>8</dim>
					<dim>32</dim>
				</port>
			</output>
		</layer>
		<layer id="273" name="Constant_516" type="Const" version="opset1">
			<data element_type="i64" shape="4" offset="1072180" size="32" />
			<output>
				<port id="0" precision="I64">
					<dim>4</dim>
				</port>
			</output>
		</layer>
		<layer id="274" name="/model/encoders/layers.2/self_attn/Transpose_1" type="Transpose" version="opset1">
			<input>
				<port id="0" precision="FP32">
					<dim>1</dim>
					<dim>20</dim>
					<dim>8</dim>
					<dim>32</dim>
				</port>
				<port id="1" precision="I64">
					<dim>4</dim>
				</port>
			</input>
			<output>
				<port id="2" precision="FP32" names="/model/encoders/layers.2/self_attn/Transpose_1_output_0">
					<dim>1</dim>
					<dim>8</dim>
					<dim>20</dim>
					<dim>32</dim>
				</port>
			</output>
		</layer>
		<layer id="275" name="/model/encoders/layers.2/self_attn/MatMul_1" type="MatMul" version="opset1">
			<data transpose_a="false" transpose_b="false" />
			<input>
				<port id="0" precision="FP32">
					<dim>1</dim>
					<dim>8</dim>
					<dim>20</dim>
					<dim>20</dim>
				</port>
				<port id="1" precision="FP32">
					<dim>1</dim>
					<dim>8</dim>
					<dim>20</dim>
					<dim>32</dim>
				</port>
			</input>
			<output>
				<port id="2" precision="FP32" names="/model/encoders/layers.2/self_attn/MatMul_1_output_0">
					<dim>1</dim>
					<dim>8</dim>
					<dim>20</dim>
					<dim>32</dim>
				</port>
			</output>
		</layer>
		<layer id="276" name="Constant_525" type="Const" version="opset1">
			<data element_type="i64" shape="4" offset="1072180" size="32" />
			<output>
				<port id="0" precision="I64">
					<dim>4</dim>
				</port>
			</output>
		</layer>
		<layer id="277" name="/model/encoders/layers.2/self_attn/Transpose_3" type="Transpose" version="opset1">
			<input>
				<port id="0" precision="FP32">
					<dim>1</dim>
					<dim>8</dim>
					<dim>20</dim>
					<dim>32</dim>
				</port>
				<port id="1" precision="I64">
					<dim>4</dim>
				</port>
			</input>
			<output>
				<port id="2" precision="FP32" names="/model/encoders/layers.2/self_attn/Transpose_3_output_0">
					<dim>1</dim>
					<dim>20</dim>
					<dim>8</dim>
					<dim>32</dim>
				</port>
			</output>
		</layer>
		<layer id="278" name="/model/encoders/layers.2/self_attn/Constant_4" type="Const" version="opset1">
			<data element_type="i64" shape="3" offset="2398360" size="24" />
			<output>
				<port id="0" precision="I64" names="/model/encoders/layers.2/self_attn/Constant_4_output_0">
					<dim>3</dim>
				</port>
			</output>
		</layer>
		<layer id="279" name="/model/encoders/layers.2/self_attn/Reshape_3" type="Reshape" version="opset1">
			<data special_zero="true" />
			<input>
				<port id="0" precision="FP32">
					<dim>1</dim>
					<dim>20</dim>
					<dim>8</dim>
					<dim>32</dim>
				</port>
				<port id="1" precision="I64">
					<dim>3</dim>
				</port>
			</input>
			<output>
				<port id="2" precision="FP32" names="/model/encoders/layers.2/self_attn/Reshape_3_output_0">
					<dim>1</dim>
					<dim>20</dim>
					<dim>256</dim>
				</port>
			</output>
		</layer>
		<layer id="280" name="Constant_3312" type="Const" version="opset1">
			<data element_type="f32" shape="1, 1, 256" offset="10356912" size="1024" />
			<output>
				<port id="0" precision="FP32">
					<dim>1</dim>
					<dim>1</dim>
					<dim>256</dim>
				</port>
			</output>
		</layer>
		<layer id="281" name="/model/encoders/layers.2/self_attn/Constant_5" type="Const" version="opset1">
			<data element_type="i64" shape="3" offset="2398360" size="24" />
			<output>
				<port id="0" precision="I64" names="/model/encoders/layers.2/self_attn/Constant_5_output_0">
					<dim>3</dim>
				</port>
			</output>
		</layer>
		<layer id="282" name="/model/encoders/layers.2/self_attn/Reshape_4" type="Reshape" version="opset1">
			<data special_zero="true" />
			<input>
				<port id="0" precision="FP32">
					<dim>1</dim>
					<dim>8</dim>
					<dim>20</dim>
					<dim>32</dim>
				</port>
				<port id="1" precision="I64">
					<dim>3</dim>
				</port>
			</input>
			<output>
				<port id="2" precision="FP32" names="/model/encoders/layers.2/self_attn/Reshape_4_output_0">
					<dim>1</dim>
					<dim>20</dim>
					<dim>256</dim>
				</port>
			</output>
		</layer>
		<layer id="283" name="Transpose_2914" type="Const" version="opset1">
			<data element_type="f32" shape="256, 256" offset="10357936" size="262144" />
			<output>
				<port id="0" precision="FP32">
					<dim>256</dim>
					<dim>256</dim>
				</port>
			</output>
		</layer>
		<layer id="284" name="/model/encoders/layers.2/self_attn/pe/linear/MatMul" type="MatMul" version="opset1">
			<data transpose_a="false" transpose_b="true" />
			<input>
				<port id="0" precision="FP32">
					<dim>1</dim>
					<dim>20</dim>
					<dim>256</dim>
				</port>
				<port id="1" precision="FP32">
					<dim>256</dim>
					<dim>256</dim>
				</port>
			</input>
			<output>
				<port id="2" precision="FP32" names="/model/encoders/layers.2/self_attn/pe/linear/MatMul_output_0">
					<dim>1</dim>
					<dim>20</dim>
					<dim>256</dim>
				</port>
			</output>
		</layer>
		<layer id="285" name="/model/encoders/layers.2/self_attn/pe/linear/Add" type="Add" version="opset1">
			<data auto_broadcast="numpy" />
			<input>
				<port id="0" precision="FP32">
					<dim>1</dim>
					<dim>1</dim>
					<dim>256</dim>
				</port>
				<port id="1" precision="FP32">
					<dim>1</dim>
					<dim>20</dim>
					<dim>256</dim>
				</port>
			</input>
			<output>
				<port id="2" precision="FP32" names="/model/encoders/layers.2/self_attn/pe/linear/Add_output_0">
					<dim>1</dim>
					<dim>20</dim>
					<dim>256</dim>
				</port>
			</output>
		</layer>
		<layer id="286" name="Constant_533" type="Const" version="opset1">
			<data element_type="i64" shape="1" offset="1063948" size="8" />
			<output>
				<port id="0" precision="I64">
					<dim>1</dim>
				</port>
			</output>
		</layer>
		<layer id="287" name="/model/encoders/layers.2/self_attn/pe/norm/Div" type="MVN" version="opset6">
			<data eps="9.9999997473787516e-06" normalize_variance="true" eps_mode="INSIDE_SQRT" />
			<input>
				<port id="0" precision="FP32">
					<dim>1</dim>
					<dim>20</dim>
					<dim>256</dim>
				</port>
				<port id="1" precision="I64">
					<dim>1</dim>
				</port>
			</input>
			<output>
				<port id="2" precision="FP32" names="/model/encoders/layers.2/self_attn/pe/norm/Div_output_0">
					<dim>1</dim>
					<dim>20</dim>
					<dim>256</dim>
				</port>
			</output>
		</layer>
		<layer id="288" name="Constant_3313" type="Const" version="opset1">
			<data element_type="f32" shape="1, 1, 256" offset="10620080" size="1024" />
			<output>
				<port id="0" precision="FP32">
					<dim>1</dim>
					<dim>1</dim>
					<dim>256</dim>
				</port>
			</output>
		</layer>
		<layer id="289" name="/model/encoders/layers.2/self_attn/pe/norm/Mul" type="Multiply" version="opset1">
			<data auto_broadcast="numpy" />
			<input>
				<port id="0" precision="FP32">
					<dim>1</dim>
					<dim>20</dim>
					<dim>256</dim>
				</port>
				<port id="1" precision="FP32">
					<dim>1</dim>
					<dim>1</dim>
					<dim>256</dim>
				</port>
			</input>
			<output>
				<port id="2" precision="FP32" names="/model/encoders/layers.2/self_attn/pe/norm/Mul_output_0">
					<dim>1</dim>
					<dim>20</dim>
					<dim>256</dim>
				</port>
			</output>
		</layer>
		<layer id="290" name="Constant_3314" type="Const" version="opset1">
			<data element_type="f32" shape="1, 1, 256" offset="10621104" size="1024" />
			<output>
				<port id="0" precision="FP32">
					<dim>1</dim>
					<dim>1</dim>
					<dim>256</dim>
				</port>
			</output>
		</layer>
		<layer id="291" name="/model/encoders/layers.2/self_attn/pe/norm/Add_1" type="Add" version="opset1">
			<data auto_broadcast="numpy" />
			<input>
				<port id="0" precision="FP32">
					<dim>1</dim>
					<dim>20</dim>
					<dim>256</dim>
				</port>
				<port id="1" precision="FP32">
					<dim>1</dim>
					<dim>1</dim>
					<dim>256</dim>
				</port>
			</input>
			<output>
				<port id="2" precision="FP32" names="/model/encoders/layers.2/self_attn/pe/norm/Add_1_output_0">
					<dim>1</dim>
					<dim>20</dim>
					<dim>256</dim>
				</port>
			</output>
		</layer>
		<layer id="292" name="/model/encoders/layers.2/self_attn/Add" type="Add" version="opset1">
			<data auto_broadcast="numpy" />
			<input>
				<port id="0" precision="FP32">
					<dim>1</dim>
					<dim>20</dim>
					<dim>256</dim>
				</port>
				<port id="1" precision="FP32">
					<dim>1</dim>
					<dim>20</dim>
					<dim>256</dim>
				</port>
			</input>
			<output>
				<port id="2" precision="FP32" names="/model/encoders/layers.2/self_attn/Add_output_0">
					<dim>1</dim>
					<dim>20</dim>
					<dim>256</dim>
				</port>
			</output>
		</layer>
		<layer id="293" name="Transpose_2932" type="Const" version="opset1">
			<data element_type="f32" shape="256, 256" offset="10622128" size="262144" />
			<output>
				<port id="0" precision="FP32">
					<dim>256</dim>
					<dim>256</dim>
				</port>
			</output>
		</layer>
		<layer id="294" name="/model/encoders/layers.2/self_attn/out/linear/MatMul" type="MatMul" version="opset1">
			<data transpose_a="false" transpose_b="true" />
			<input>
				<port id="0" precision="FP32">
					<dim>1</dim>
					<dim>20</dim>
					<dim>256</dim>
				</port>
				<port id="1" precision="FP32">
					<dim>256</dim>
					<dim>256</dim>
				</port>
			</input>
			<output>
				<port id="2" precision="FP32" names="/model/encoders/layers.2/self_attn/out/linear/MatMul_output_0">
					<dim>1</dim>
					<dim>20</dim>
					<dim>256</dim>
				</port>
			</output>
		</layer>
		<layer id="295" name="/model/encoders/layers.2/self_attn/out/linear/Add" type="Add" version="opset1">
			<data auto_broadcast="numpy" />
			<input>
				<port id="0" precision="FP32">
					<dim>1</dim>
					<dim>1</dim>
					<dim>256</dim>
				</port>
				<port id="1" precision="FP32">
					<dim>1</dim>
					<dim>20</dim>
					<dim>256</dim>
				</port>
			</input>
			<output>
				<port id="2" precision="FP32" names="/model/encoders/layers.2/self_attn/out/linear/Add_output_0">
					<dim>1</dim>
					<dim>20</dim>
					<dim>256</dim>
				</port>
			</output>
		</layer>
		<layer id="296" name="Constant_549" type="Const" version="opset1">
			<data element_type="i64" shape="1" offset="1063948" size="8" />
			<output>
				<port id="0" precision="I64">
					<dim>1</dim>
				</port>
			</output>
		</layer>
		<layer id="297" name="/model/encoders/layers.2/self_attn/out/norm/Div" type="MVN" version="opset6">
			<data eps="9.9999997473787516e-06" normalize_variance="true" eps_mode="INSIDE_SQRT" />
			<input>
				<port id="0" precision="FP32">
					<dim>1</dim>
					<dim>20</dim>
					<dim>256</dim>
				</port>
				<port id="1" precision="I64">
					<dim>1</dim>
				</port>
			</input>
			<output>
				<port id="2" precision="FP32" names="/model/encoders/layers.2/self_attn/out/norm/Div_output_0">
					<dim>1</dim>
					<dim>20</dim>
					<dim>256</dim>
				</port>
			</output>
		</layer>
		<layer id="298" name="Constant_3316" type="Const" version="opset1">
			<data element_type="f32" shape="1, 1, 256" offset="10884272" size="1024" />
			<output>
				<port id="0" precision="FP32">
					<dim>1</dim>
					<dim>1</dim>
					<dim>256</dim>
				</port>
			</output>
		</layer>
		<layer id="299" name="/model/encoders/layers.2/self_attn/out/norm/Mul" type="Multiply" version="opset1">
			<data auto_broadcast="numpy" />
			<input>
				<port id="0" precision="FP32">
					<dim>1</dim>
					<dim>20</dim>
					<dim>256</dim>
				</port>
				<port id="1" precision="FP32">
					<dim>1</dim>
					<dim>1</dim>
					<dim>256</dim>
				</port>
			</input>
			<output>
				<port id="2" precision="FP32" names="/model/encoders/layers.2/self_attn/out/norm/Mul_output_0">
					<dim>1</dim>
					<dim>20</dim>
					<dim>256</dim>
				</port>
			</output>
		</layer>
		<layer id="300" name="Constant_3317" type="Const" version="opset1">
			<data element_type="f32" shape="1, 1, 256" offset="10885296" size="1024" />
			<output>
				<port id="0" precision="FP32">
					<dim>1</dim>
					<dim>1</dim>
					<dim>256</dim>
				</port>
			</output>
		</layer>
		<layer id="301" name="/model/encoders/layers.2/self_attn/out/norm/Add_1" type="Add" version="opset1">
			<data auto_broadcast="numpy" />
			<input>
				<port id="0" precision="FP32">
					<dim>1</dim>
					<dim>20</dim>
					<dim>256</dim>
				</port>
				<port id="1" precision="FP32">
					<dim>1</dim>
					<dim>1</dim>
					<dim>256</dim>
				</port>
			</input>
			<output>
				<port id="2" precision="FP32" names="/model/encoders/layers.2/self_attn/out/norm/Add_1_output_0">
					<dim>1</dim>
					<dim>20</dim>
					<dim>256</dim>
				</port>
			</output>
		</layer>
		<layer id="302" name="/model/encoders/layers.2/Add" type="Add" version="opset1">
			<data auto_broadcast="numpy" />
			<input>
				<port id="0" precision="FP32">
					<dim>1</dim>
					<dim>20</dim>
					<dim>256</dim>
				</port>
				<port id="1" precision="FP32">
					<dim>1</dim>
					<dim>20</dim>
					<dim>256</dim>
				</port>
			</input>
			<output>
				<port id="2" precision="FP32" names="/model/encoders/layers.2/Add_output_0">
					<dim>1</dim>
					<dim>20</dim>
					<dim>256</dim>
				</port>
			</output>
		</layer>
		<layer id="303" name="Constant_563" type="Const" version="opset1">
			<data element_type="i64" shape="1" offset="1063948" size="8" />
			<output>
				<port id="0" precision="I64">
					<dim>1</dim>
				</port>
			</output>
		</layer>
		<layer id="304" name="/model/encoders/layers.2/norm1/Div" type="MVN" version="opset6">
			<data eps="9.9999997473787516e-06" normalize_variance="true" eps_mode="INSIDE_SQRT" />
			<input>
				<port id="0" precision="FP32">
					<dim>1</dim>
					<dim>20</dim>
					<dim>256</dim>
				</port>
				<port id="1" precision="I64">
					<dim>1</dim>
				</port>
			</input>
			<output>
				<port id="2" precision="FP32" names="/model/encoders/layers.2/norm1/Div_output_0">
					<dim>1</dim>
					<dim>20</dim>
					<dim>256</dim>
				</port>
			</output>
		</layer>
		<layer id="305" name="Constant_3318" type="Const" version="opset1">
			<data element_type="f32" shape="1, 1, 256" offset="10886320" size="1024" />
			<output>
				<port id="0" precision="FP32">
					<dim>1</dim>
					<dim>1</dim>
					<dim>256</dim>
				</port>
			</output>
		</layer>
		<layer id="306" name="/model/encoders/layers.2/norm1/Mul" type="Multiply" version="opset1">
			<data auto_broadcast="numpy" />
			<input>
				<port id="0" precision="FP32">
					<dim>1</dim>
					<dim>20</dim>
					<dim>256</dim>
				</port>
				<port id="1" precision="FP32">
					<dim>1</dim>
					<dim>1</dim>
					<dim>256</dim>
				</port>
			</input>
			<output>
				<port id="2" precision="FP32" names="/model/encoders/layers.2/norm1/Mul_output_0">
					<dim>1</dim>
					<dim>20</dim>
					<dim>256</dim>
				</port>
			</output>
		</layer>
		<layer id="307" name="Constant_3319" type="Const" version="opset1">
			<data element_type="f32" shape="1, 1, 256" offset="10887344" size="1024" />
			<output>
				<port id="0" precision="FP32">
					<dim>1</dim>
					<dim>1</dim>
					<dim>256</dim>
				</port>
			</output>
		</layer>
		<layer id="308" name="/model/encoders/layers.2/norm1/Add_1" type="Add" version="opset1">
			<data auto_broadcast="numpy" />
			<input>
				<port id="0" precision="FP32">
					<dim>1</dim>
					<dim>20</dim>
					<dim>256</dim>
				</port>
				<port id="1" precision="FP32">
					<dim>1</dim>
					<dim>1</dim>
					<dim>256</dim>
				</port>
			</input>
			<output>
				<port id="2" precision="FP32" names="/model/encoders/layers.2/norm1/Add_1_output_0">
					<dim>1</dim>
					<dim>20</dim>
					<dim>256</dim>
				</port>
			</output>
		</layer>
		<layer id="309" name="Constant_3323" type="Const" version="opset1">
			<data element_type="f32" shape="1, 1, 256" offset="10888368" size="1024" />
			<output>
				<port id="0" precision="FP32">
					<dim>1</dim>
					<dim>1</dim>
					<dim>256</dim>
				</port>
			</output>
		</layer>
		<layer id="310" name="Constant_3320" type="Const" version="opset1">
			<data element_type="f32" shape="1, 1, 512" offset="10889392" size="2048" />
			<output>
				<port id="0" precision="FP32">
					<dim>1</dim>
					<dim>1</dim>
					<dim>512</dim>
				</port>
			</output>
		</layer>
		<layer id="311" name="Transpose_2959" type="Const" version="opset1">
			<data element_type="f32" shape="512, 256" offset="10891440" size="524288" />
			<output>
				<port id="0" precision="FP32">
					<dim>512</dim>
					<dim>256</dim>
				</port>
			</output>
		</layer>
		<layer id="312" name="/model/encoders/layers.2/ffn/linear1/linear/MatMul" type="MatMul" version="opset1">
			<data transpose_a="false" transpose_b="true" />
			<input>
				<port id="0" precision="FP32">
					<dim>1</dim>
					<dim>20</dim>
					<dim>256</dim>
				</port>
				<port id="1" precision="FP32">
					<dim>512</dim>
					<dim>256</dim>
				</port>
			</input>
			<output>
				<port id="2" precision="FP32" names="/model/encoders/layers.2/ffn/linear1/linear/MatMul_output_0">
					<dim>1</dim>
					<dim>20</dim>
					<dim>512</dim>
				</port>
			</output>
		</layer>
		<layer id="313" name="/model/encoders/layers.2/ffn/linear1/linear/Add" type="Add" version="opset1">
			<data auto_broadcast="numpy" />
			<input>
				<port id="0" precision="FP32">
					<dim>1</dim>
					<dim>1</dim>
					<dim>512</dim>
				</port>
				<port id="1" precision="FP32">
					<dim>1</dim>
					<dim>20</dim>
					<dim>512</dim>
				</port>
			</input>
			<output>
				<port id="2" precision="FP32" names="/model/encoders/layers.2/ffn/linear1/linear/Add_output_0">
					<dim>1</dim>
					<dim>20</dim>
					<dim>512</dim>
				</port>
			</output>
		</layer>
		<layer id="314" name="Constant_578" type="Const" version="opset1">
			<data element_type="i64" shape="1" offset="1063948" size="8" />
			<output>
				<port id="0" precision="I64">
					<dim>1</dim>
				</port>
			</output>
		</layer>
		<layer id="315" name="/model/encoders/layers.2/ffn/linear1/norm/Div" type="MVN" version="opset6">
			<data eps="9.9999997473787516e-06" normalize_variance="true" eps_mode="INSIDE_SQRT" />
			<input>
				<port id="0" precision="FP32">
					<dim>1</dim>
					<dim>20</dim>
					<dim>512</dim>
				</port>
				<port id="1" precision="I64">
					<dim>1</dim>
				</port>
			</input>
			<output>
				<port id="2" precision="FP32" names="/model/encoders/layers.2/ffn/linear1/norm/Div_output_0">
					<dim>1</dim>
					<dim>20</dim>
					<dim>512</dim>
				</port>
			</output>
		</layer>
		<layer id="316" name="Constant_3321" type="Const" version="opset1">
			<data element_type="f32" shape="1, 1, 512" offset="11415728" size="2048" />
			<output>
				<port id="0" precision="FP32">
					<dim>1</dim>
					<dim>1</dim>
					<dim>512</dim>
				</port>
			</output>
		</layer>
		<layer id="317" name="/model/encoders/layers.2/ffn/linear1/norm/Mul" type="Multiply" version="opset1">
			<data auto_broadcast="numpy" />
			<input>
				<port id="0" precision="FP32">
					<dim>1</dim>
					<dim>20</dim>
					<dim>512</dim>
				</port>
				<port id="1" precision="FP32">
					<dim>1</dim>
					<dim>1</dim>
					<dim>512</dim>
				</port>
			</input>
			<output>
				<port id="2" precision="FP32" names="/model/encoders/layers.2/ffn/linear1/norm/Mul_output_0">
					<dim>1</dim>
					<dim>20</dim>
					<dim>512</dim>
				</port>
			</output>
		</layer>
		<layer id="318" name="Constant_3322" type="Const" version="opset1">
			<data element_type="f32" shape="1, 1, 512" offset="11417776" size="2048" />
			<output>
				<port id="0" precision="FP32">
					<dim>1</dim>
					<dim>1</dim>
					<dim>512</dim>
				</port>
			</output>
		</layer>
		<layer id="319" name="/model/encoders/layers.2/ffn/linear1/norm/Add_1" type="Add" version="opset1">
			<data auto_broadcast="numpy" />
			<input>
				<port id="0" precision="FP32">
					<dim>1</dim>
					<dim>20</dim>
					<dim>512</dim>
				</port>
				<port id="1" precision="FP32">
					<dim>1</dim>
					<dim>1</dim>
					<dim>512</dim>
				</port>
			</input>
			<output>
				<port id="2" precision="FP32" names="/model/encoders/layers.2/ffn/linear1/norm/Add_1_output_0">
					<dim>1</dim>
					<dim>20</dim>
					<dim>512</dim>
				</port>
			</output>
		</layer>
		<layer id="320" name="/model/encoders/layers.2/ffn/linear1/act/Mul" type="Swish" version="opset4">
			<input>
				<port id="0" precision="FP32">
					<dim>1</dim>
					<dim>20</dim>
					<dim>512</dim>
				</port>
			</input>
			<output>
				<port id="1" precision="FP32" names="/model/encoders/layers.2/ffn/linear1/act/Mul_output_0">
					<dim>1</dim>
					<dim>20</dim>
					<dim>512</dim>
				</port>
			</output>
		</layer>
		<layer id="321" name="Transpose_2976" type="Const" version="opset1">
			<data element_type="f32" shape="256, 512" offset="11419824" size="524288" />
			<output>
				<port id="0" precision="FP32">
					<dim>256</dim>
					<dim>512</dim>
				</port>
			</output>
		</layer>
		<layer id="322" name="/model/encoders/layers.2/ffn/linear2/linear/MatMul" type="MatMul" version="opset1">
			<data transpose_a="false" transpose_b="true" />
			<input>
				<port id="0" precision="FP32">
					<dim>1</dim>
					<dim>20</dim>
					<dim>512</dim>
				</port>
				<port id="1" precision="FP32">
					<dim>256</dim>
					<dim>512</dim>
				</port>
			</input>
			<output>
				<port id="2" precision="FP32" names="/model/encoders/layers.2/ffn/linear2/linear/MatMul_output_0">
					<dim>1</dim>
					<dim>20</dim>
					<dim>256</dim>
				</port>
			</output>
		</layer>
		<layer id="323" name="/model/encoders/layers.2/ffn/linear2/linear/Add" type="Add" version="opset1">
			<data auto_broadcast="numpy" />
			<input>
				<port id="0" precision="FP32">
					<dim>1</dim>
					<dim>1</dim>
					<dim>256</dim>
				</port>
				<port id="1" precision="FP32">
					<dim>1</dim>
					<dim>20</dim>
					<dim>256</dim>
				</port>
			</input>
			<output>
				<port id="2" precision="FP32" names="/model/encoders/layers.2/ffn/linear2/linear/Add_output_0">
					<dim>1</dim>
					<dim>20</dim>
					<dim>256</dim>
				</port>
			</output>
		</layer>
		<layer id="324" name="Constant_595" type="Const" version="opset1">
			<data element_type="i64" shape="1" offset="1063948" size="8" />
			<output>
				<port id="0" precision="I64">
					<dim>1</dim>
				</port>
			</output>
		</layer>
		<layer id="325" name="/model/encoders/layers.2/ffn/linear2/norm/Div" type="MVN" version="opset6">
			<data eps="9.9999997473787516e-06" normalize_variance="true" eps_mode="INSIDE_SQRT" />
			<input>
				<port id="0" precision="FP32">
					<dim>1</dim>
					<dim>20</dim>
					<dim>256</dim>
				</port>
				<port id="1" precision="I64">
					<dim>1</dim>
				</port>
			</input>
			<output>
				<port id="2" precision="FP32" names="/model/encoders/layers.2/ffn/linear2/norm/Div_output_0">
					<dim>1</dim>
					<dim>20</dim>
					<dim>256</dim>
				</port>
			</output>
		</layer>
		<layer id="326" name="Constant_3324" type="Const" version="opset1">
			<data element_type="f32" shape="1, 1, 256" offset="11944112" size="1024" />
			<output>
				<port id="0" precision="FP32">
					<dim>1</dim>
					<dim>1</dim>
					<dim>256</dim>
				</port>
			</output>
		</layer>
		<layer id="327" name="/model/encoders/layers.2/ffn/linear2/norm/Mul" type="Multiply" version="opset1">
			<data auto_broadcast="numpy" />
			<input>
				<port id="0" precision="FP32">
					<dim>1</dim>
					<dim>20</dim>
					<dim>256</dim>
				</port>
				<port id="1" precision="FP32">
					<dim>1</dim>
					<dim>1</dim>
					<dim>256</dim>
				</port>
			</input>
			<output>
				<port id="2" precision="FP32" names="/model/encoders/layers.2/ffn/linear2/norm/Mul_output_0">
					<dim>1</dim>
					<dim>20</dim>
					<dim>256</dim>
				</port>
			</output>
		</layer>
		<layer id="328" name="Constant_3325" type="Const" version="opset1">
			<data element_type="f32" shape="1, 1, 256" offset="11945136" size="1024" />
			<output>
				<port id="0" precision="FP32">
					<dim>1</dim>
					<dim>1</dim>
					<dim>256</dim>
				</port>
			</output>
		</layer>
		<layer id="329" name="/model/encoders/layers.2/ffn/linear2/norm/Add_1" type="Add" version="opset1">
			<data auto_broadcast="numpy" />
			<input>
				<port id="0" precision="FP32">
					<dim>1</dim>
					<dim>20</dim>
					<dim>256</dim>
				</port>
				<port id="1" precision="FP32">
					<dim>1</dim>
					<dim>1</dim>
					<dim>256</dim>
				</port>
			</input>
			<output>
				<port id="2" precision="FP32" names="/model/encoders/layers.2/ffn/linear2/norm/Add_1_output_0">
					<dim>1</dim>
					<dim>20</dim>
					<dim>256</dim>
				</port>
			</output>
		</layer>
		<layer id="330" name="/model/encoders/layers.2/Add_1" type="Add" version="opset1">
			<data auto_broadcast="numpy" />
			<input>
				<port id="0" precision="FP32">
					<dim>1</dim>
					<dim>20</dim>
					<dim>256</dim>
				</port>
				<port id="1" precision="FP32">
					<dim>1</dim>
					<dim>20</dim>
					<dim>256</dim>
				</port>
			</input>
			<output>
				<port id="2" precision="FP32" names="/model/encoders/layers.2/Add_1_output_0">
					<dim>1</dim>
					<dim>20</dim>
					<dim>256</dim>
				</port>
			</output>
		</layer>
		<layer id="331" name="Constant_609" type="Const" version="opset1">
			<data element_type="i64" shape="1" offset="1063948" size="8" />
			<output>
				<port id="0" precision="I64">
					<dim>1</dim>
				</port>
			</output>
		</layer>
		<layer id="332" name="/model/encoders/layers.2/norm2/Div" type="MVN" version="opset6">
			<data eps="9.9999997473787516e-06" normalize_variance="true" eps_mode="INSIDE_SQRT" />
			<input>
				<port id="0" precision="FP32">
					<dim>1</dim>
					<dim>20</dim>
					<dim>256</dim>
				</port>
				<port id="1" precision="I64">
					<dim>1</dim>
				</port>
			</input>
			<output>
				<port id="2" precision="FP32" names="/model/encoders/layers.2/norm2/Div_output_0">
					<dim>1</dim>
					<dim>20</dim>
					<dim>256</dim>
				</port>
			</output>
		</layer>
		<layer id="333" name="Constant_3326" type="Const" version="opset1">
			<data element_type="f32" shape="1, 1, 256" offset="11946160" size="1024" />
			<output>
				<port id="0" precision="FP32">
					<dim>1</dim>
					<dim>1</dim>
					<dim>256</dim>
				</port>
			</output>
		</layer>
		<layer id="334" name="/model/encoders/layers.2/norm2/Mul" type="Multiply" version="opset1">
			<data auto_broadcast="numpy" />
			<input>
				<port id="0" precision="FP32">
					<dim>1</dim>
					<dim>20</dim>
					<dim>256</dim>
				</port>
				<port id="1" precision="FP32">
					<dim>1</dim>
					<dim>1</dim>
					<dim>256</dim>
				</port>
			</input>
			<output>
				<port id="2" precision="FP32" names="/model/encoders/layers.2/norm2/Mul_output_0">
					<dim>1</dim>
					<dim>20</dim>
					<dim>256</dim>
				</port>
			</output>
		</layer>
		<layer id="335" name="Constant_3327" type="Const" version="opset1">
			<data element_type="f32" shape="1, 1, 256" offset="11947184" size="1024" />
			<output>
				<port id="0" precision="FP32">
					<dim>1</dim>
					<dim>1</dim>
					<dim>256</dim>
				</port>
			</output>
		</layer>
		<layer id="336" name="/model/encoders/layers.2/norm2/Add_1" type="Add" version="opset1">
			<data auto_broadcast="numpy" />
			<input>
				<port id="0" precision="FP32">
					<dim>1</dim>
					<dim>20</dim>
					<dim>256</dim>
				</port>
				<port id="1" precision="FP32">
					<dim>1</dim>
					<dim>1</dim>
					<dim>256</dim>
				</port>
			</input>
			<output>
				<port id="2" precision="FP32" names="/model/encoders/layers.2/norm2/Add_1_output_0">
					<dim>1</dim>
					<dim>20</dim>
					<dim>256</dim>
				</port>
			</output>
		</layer>
		<layer id="337" name="onnx::Conv_955" type="Const" version="opset1">
			<data element_type="f32" shape="10, 20, 3" offset="11948208" size="2400" />
			<output>
				<port id="0" precision="FP32" names="onnx::Conv_955">
					<dim>10</dim>
					<dim>20</dim>
					<dim>3</dim>
				</port>
			</output>
		</layer>
		<layer id="338" name="/model/pre_coords/trans_fc/trans_fc/trans_fc.0/conv/Conv/WithoutBiases" type="Convolution" version="opset1">
			<data strides="1" dilations="1" pads_begin="1" pads_end="1" auto_pad="explicit" />
			<input>
				<port id="0" precision="FP32">
					<dim>1</dim>
					<dim>20</dim>
					<dim>256</dim>
				</port>
…
				<port id="3" precision="FP32" names="/model/pre_coords/Gather_output_0">
					<dim>1</dim>
				</port>
			</output>
		</layer>
		<layer id="509" name="/model/pre_coords/Constant_1" type="Const" version="opset1">
			<data element_type="i64" shape="1" offset="14336044" size="8" />
			<output>
				<port id="0" precision="I64" names="/model/pre_coords/Constant_1_output_0">
					<dim>1</dim>
				</port>
			</output>
		</layer>
		<layer id="510" name="/model/pre_coords/Unsqueeze" type="Unsqueeze" version="opset1">
			<input>
				<port id="0" precision="FP32">
					<dim>1</dim>
				</port>
				<port id="1" precision="I64">
					<dim>1</dim>
				</port>
			</input>
			<output>
				<port id="2" precision="FP32" names="/model/pre_coords/Unsqueeze_output_0">
					<dim>1</dim>
					<dim>1</dim>
				</port>
			</output>
		</layer>
		<layer id="511" name="/model/pre_coords/Where" type="Const" version="opset1">
			<data element_type="i64" shape="2" offset="14602832" size="16" />
			<output>
				<port id="0" precision="I64" names="/model/pre_coords/Where_output_0">
					<dim>2</dim>
				</port>
			</output>
		</layer>
		<layer id="512" name="/model/pre_coords/Expand" type="Broadcast" version="opset3">
			<data mode="bidirectional" />
			<input>
				<port id="0" precision="FP32">
					<dim>1</dim>
					<dim>1</dim>
				</port>
				<port id="1" precision="I64">
					<dim>2</dim>
				</port>
			</input>
			<output>
				<port id="2" precision="FP32" names="/model/pre_coords/Expand_output_0">
					<dim>1</dim>
					<dim>10</dim>
				</port>
			</output>
		</layer>
		<layer id="513" name="/model/pre_coords/Cos" type="Cos" version="opset1">
			<input>
				<port id="0" precision="FP32">
					<dim>1</dim>
					<dim>10</dim>
				</port>
			</input>
			<output>
				<port id="1" precision="FP32" names="/model/pre_coords/Cos_output_0">
					<dim>1</dim>
					<dim>10</dim>
				</port>
			</output>
		</layer>
		<layer id="514" name="/model/pre_coords/Mul_3" type="Multiply" version="opset1">
			<data auto_broadcast="numpy" />
			<input>
				<port id="0" precision="FP32">
					<dim>1</dim>
					<dim>10</dim>
				</port>
				<port id="1" precision="FP32">
					<dim>1</dim>
					<dim>10</dim>
				</port>
			</input>
			<output>
				<port id="2" precision="FP32" names="/model/pre_coords/Mul_3_output_0">
					<dim>1</dim>
					<dim>10</dim>
				</port>
			</output>
		</layer>
		<layer id="515" name="/model/pre_coords/Constant_12" type="Const" version="opset1">
			<data element_type="i64" shape="1" offset="1063948" size="8" />
			<output>
				<port id="0" precision="I64" names="/model/pre_coords/Constant_12_output_0">
					<dim>1</dim>
				</port>
			</output>
		</layer>
		<layer id="516" name="/model/pre_coords/Unsqueeze_2" type="Unsqueeze" version="opset1">
			<input>
				<port id="0" precision="FP32">
					<dim>1</dim>
					<dim>10</dim>
				</port>
				<port id="1" precision="I64">
					<dim>1</dim>
				</port>
			</input>
			<output>
				<port id="2" precision="FP32" names="/model/pre_coords/Unsqueeze_2_output_0">
					<dim>1</dim>
					<dim>10</dim>
					<dim>1</dim>
				</port>
			</output>
		</layer>
		<layer id="517" name="/model/pre_coords/Sin_1" type="Sin" version="opset1">
			<input>
				<port id="0" precision="FP32">
					<dim>1</dim>
					<dim>10</dim>
				</port>
			</input>
			<output>
				<port id="1" precision="FP32" names="/model/pre_coords/Sin_1_output_0">
					<dim>1</dim>
					<dim>10</dim>
				</port>
			</output>
		</layer>
		<layer id="518" name="/model/pre_coords/Mul_4" type="Multiply" version="opset1">
			<data auto_broadcast="numpy" />
			<input>
				<port id="0" precision="FP32">
					<dim>1</dim>
					<dim>10</dim>
				</port>
				<port id="1" precision="FP32">
					<dim>1</dim>
					<dim>10</dim>
				</port>
			</input>
			<output>
				<port id="2" precision="FP32" names="/model/pre_coords/Mul_4_output_0">
					<dim>1</dim>
					<dim>10</dim>
				</port>
			</output>
		</layer>
		<layer id="519" name="/model/pre_coords/Constant_13" type="Const" version="opset1">
			<data element_type="i64" shape="1" offset="1063948" size="8" />
			<output>
				<port id="0" precision="I64" names="/model/pre_coords/Constant_13_output_0">
					<dim>1</dim>
				</port>
			</output>
		</layer>
		<layer id="520" name="/model/pre_coords/Unsqueeze_3" type="Unsqueeze" version="opset1">
			<input>
				<port id="0" precision="FP32">
					<dim>1</dim>
					<dim>10</dim>
				</port>
				<port id="1" precision="I64">
					<dim>1</dim>
				</port>
			</input>
			<output>
				<port id="2" precision="FP32" names="/model/pre_coords/Unsqueeze_3_output_0">
					<dim>1</dim>
					<dim>10</dim>
					<dim>1</dim>
				</port>
			</output>
		</layer>
		<layer id="521" name="/model/pre_coords/Cos_1" type="Cos" version="opset1">
			<input>
				<port id="0" precision="FP32">
					<dim>1</dim>
					<dim>10</dim>
				</port>
			</input>
			<output>
				<port id="1" precision="FP32" names="/model/pre_coords/Cos_1_output_0">
					<dim>1</dim>
					<dim>10</dim>
				</port>
			</output>
		</layer>
		<layer id="522" name="/model/pre_coords/Mul_5" type="Multiply" version="opset1">
			<data auto_broadcast="numpy" />
			<input>
				<port id="0" precision="FP32">
					<dim>1</dim>
					<dim>10</dim>
				</port>
				<port id="1" precision="FP32">
					<dim>1</dim>
					<dim>10</dim>
				</port>
			</input>
			<output>
				<port id="2" precision="FP32" names="/model/pre_coords/Mul_5_output_0">
					<dim>1</dim>
					<dim>10</dim>
				</port>
			</output>
		</layer>
		<layer id="523" name="/model/pre_coords/Constant_14" type="Const" version="opset1">
			<data element_type="i64" shape="1" offset="1063948" size="8" />
			<output>
				<port id="0" precision="I64" names="/model/pre_coords/Constant_14_output_0">
					<dim>1</dim>
				</port>
			</output>
		</layer>
		<layer id="524" name="/model/pre_coords/Unsqueeze_4" type="Unsqueeze" version="opset1">
			<input>
				<port id="0" precision="FP32">
					<dim>1</dim>
					<dim>10</dim>
				</port>
				<port id="1" precision="I64">
					<dim>1</dim>
				</port>
			</input>
			<output>
				<port id="2" precision="FP32" names="/model/pre_coords/Unsqueeze_4_output_0">
					<dim>1</dim>
					<dim>10</dim>
					<dim>1</dim>
				</port>
			</output>
		</layer>
		<layer id="525" name="/model/pre_coords/Concat" type="Concat" version="opset1">
			<data axis="-1" />
			<input>
				<port id="0" precision="FP32">
					<dim>1</dim>
					<dim>10</dim>
					<dim>1</dim>
				</port>
				<port id="1" precision="FP32">
					<dim>1</dim>
					<dim>10</dim>
					<dim>1</dim>
				</port>
				<port id="2" precision="FP32">
					<dim>1</dim>
					<dim>10</dim>
					<dim>1</dim>
				</port>
			</input>
			<output>
				<port id="3" precision="FP32" names="/model/pre_coords/Concat_output_0">
					<dim>1</dim>
					<dim>10</dim>
					<dim>3</dim>
				</port>
			</output>
		</layer>
		<layer id="526" name="/model/pre_coords/Constant_30" type="Const" version="opset1">
			<data element_type="i64" shape="1" offset="1063948" size="8" />
			<output>
				<port id="0" precision="I64" names="/model/pre_coords/Constant_30_output_0">
					<dim>1</dim>
				</port>
			</output>
		</layer>
		<layer id="527" name="/model/pre_coords/Unsqueeze_14" type="Unsqueeze" version="opset1">
			<input>
				<port id="0" precision="FP32">
					<dim>1</dim>
					<dim>10</dim>
					<dim>3</dim>
				</port>
				<port id="1" precision="I64">
					<dim>1</dim>
				</port>
			</input>
			<output>
				<port id="2" precision="FP32" names="/model/pre_coords/Unsqueeze_14_output_0">
					<dim>1</dim>
					<dim>10</dim>
					<dim>3</dim>
					<dim>1</dim>
				</port>
			</output>
		</layer>
		<layer id="528" name="/model/pre_coords/MatMul_1" type="MatMul" version="opset1">
			<data transpose_a="false" transpose_b="false" />
			<input>
				<port id="0" precision="FP32">
					<dim>1</dim>
					<dim>10</dim>
					<dim>3</dim>
					<dim>3</dim>
				</port>
				<port id="1" precision="FP32">
					<dim>1</dim>
					<dim>10</dim>
					<dim>3</dim>
					<dim>1</dim>
				</port>
			</input>
			<output>
				<port id="2" precision="FP32" names="/model/pre_coords/MatMul_1_output_0">
					<dim>1</dim>
					<dim>10</dim>
					<dim>3</dim>
					<dim>1</dim>
				</port>
			</output>
		</layer>
		<layer id="529" name="/model/pre_coords/Constant_31" type="Const" version="opset1">
			<data element_type="i64" shape="1" offset="14602848" size="8" />
			<output>
				<port id="0" precision="I64" names="/model/pre_coords/Constant_31_output_0">
					<dim>1</dim>
				</port>
			</output>
		</layer>
		<layer id="530" name="/model/pre_coords/Squeeze_2" type="Squeeze" version="opset1">
			<input>
				<port id="0" precision="FP32">
					<dim>1</dim>
					<dim>10</dim>
					<dim>3</dim>
					<dim>1</dim>
				</port>
				<port id="1" precision="I64">
					<dim>1</dim>
				</port>
			</input>
			<output>
				<port id="2" precision="FP32" names="/model/pre_coords/Squeeze_2_output_0">
					<dim>1</dim>
					<dim>10</dim>
					<dim>3</dim>
				</port>
			</output>
		</layer>
		<layer id="531" name="output" type="Add" version="opset1">
			<data auto_broadcast="numpy" />
			<input>
				<port id="0" precision="FP32">
					<dim>1</dim>
					<dim>10</dim>
					<dim>3</dim>
				</port>
				<port id="1" precision="FP32">
					<dim>1</dim>
					<dim>10</dim>
					<dim>3</dim>
				</port>
			</input>
			<output>
				<port id="2" precision="FP32" names="output">
					<dim>1</dim>
					<dim>10</dim>
					<dim>3</dim>
				</port>
			</output>
		</layer>
		<layer id="532" name="output/sink_port_0" type="Result" version="opset1">
			<input>
				<port id="0" precision="FP32">
					<dim>1</dim>
					<dim>10</dim>
					<dim>3</dim>
				</port>
			</input>
		</layer>
	</layers>
	<edges>
		<edge from-layer="0" from-port="0" to-layer="8" to-port="0" />
		<edge from-layer="1" from-port="0" to-layer="398" to-port="0" />
		<edge from-layer="2" from-port="0" to-layer="381" to-port="0" />
		<edge from-layer="3" from-port="0" to-layer="371" to-port="0" />
		<edge from-layer="4" from-port="0" to-layer="354" to-port="0" />
		<edge from-layer="5" from-port="0" to-layer="344" to-port="0" />
		<edge from-layer="6" from-port="0" to-layer="9" to-port="0" />
		<edge from-layer="7" from-port="0" to-layer="8" to-port="1" />
		<edge from-layer="8" from-port="2" to-layer="9" to-port="1" />
		<edge from-layer="9" from-port="2" to-layer="13" to-port="0" />
		<edge from-layer="9" from-port="2" to-layer="27" to-port="0" />
		<edge from-layer="9" from-port="2" to-layer="84" to-port="0" />
		<edge from-layer="9" from-port="2" to-layer="45" to-port="0" />
		<edge from-layer="10" from-port="0" to-layer="77" to-port="0" />
		<edge from-layer="11" from-port="0" to-layer="14" to-port="0" />
		<edge from-layer="12" from-port="0" to-layer="13" to-port="1" />
		<edge from-layer="13" from-port="2" to-layer="14" to-port="1" />
		<edge from-layer="14" from-port="2" to-layer="16" to-port="0" />
		<edge from-layer="15" from-port="0" to-layer="16" to-port="1" />
		<edge from-layer="16" from-port="2" to-layer="18" to-port="0" />
		<edge from-layer="17" from-port="0" to-layer="18" to-port="1" />
		<edge from-layer="18" from-port="2" to-layer="20" to-port="0" />
		<edge from-layer="19" from-port="0" to-layer="20" to-port="1" />
		<edge from-layer="20" from-port="2" to-layer="22" to-port="0" />
		<edge from-layer="21" from-port="0" to-layer="22" to-port="1" />
		<edge from-layer="22" from-port="2" to-layer="24" to-port="0" />
		<edge from-layer="23" from-port="0" to-layer="24" to-port="1" />
		<edge from-layer="24" from-port="2" to-layer="41" to-port="0" />
		<edge from-layer="25" from-port="0" to-layer="28" to-port="0" />
		<edge from-layer="26" from-port="0" to-layer="27" to-port="1" />
		<edge from-layer="27" from-port="2" to-layer="28" to-port="1" />
		<edge from-layer="28" from-port="2" to-layer="30" to-port="0" />
		<edge from-layer="29" from-port="0" to-layer="30" to-port="1" />
		<edge from-layer="30" from-port="2" to-layer="32" to-port="0" />
		<edge from-layer="31" from-port="0" to-layer="32" to-port="1" />
		<edge from-layer="32" from-port="2" to-layer="34" to-port="0" />
		<edge from-layer="33" from-port="0" to-layer="34" to-port="1" />
		<edge from-layer="34" from-port="2" to-layer="36" to-port="0" />
		<edge from-layer="35" from-port="0" to-layer="36" to-port="1" />
		<edge from-layer="36" from-port="2" to-layer="38" to-port="0" />
		<edge from-layer="37" from-port="0" to-layer="38" to-port="1" />
		<edge from-layer="38" from-port="2" to-layer="40" to-port="0" />
		<edge from-layer="39" from-port="0" to-layer="40" to-port="1" />
		<edge from-layer="40" from-port="2" to-layer="41" to-port="1" />
		<edge from-layer="41" from-port="2" to-layer="42" to-port="0" />
		<edge from-layer="42" from-port="1" to-layer="57" to-port="0" />
		<edge from-layer="43" from-port="0" to-layer="46" to-port="0" />
		<edge from-layer="44" from-port="0" to-layer="45" to-port="1" />
		<edge from-layer="45" from-port="2" to-layer="46" to-port="1" />
		<edge from-layer="46" from-port="2" to-layer="48" to-port="0" />
		<edge from-layer="47" from-port="0" to-layer="48" to-port="1" />
		<edge from-layer="48" from-port="2" to-layer="50" to-port="0" />
		<edge from-layer="49" from-port="0" to-layer="50" to-port="1" />
		<edge from-layer="50" from-port="2" to-layer="52" to-port="0" />
		<edge from-layer="51" from-port="0" to-layer="52" to-port="1" />
		<edge from-layer="52" from-port="2" to-layer="54" to-port="0" />
		<edge from-layer="53" from-port="0" to-layer="54" to-port="1" />
		<edge from-layer="54" from-port="2" to-layer="56" to-port="0" />
		<edge from-layer="55" from-port="0" to-layer="56" to-port="1" />
		<edge from-layer="56" from-port="2" to-layer="57" to-port="1" />
		<edge from-layer="56" from-port="2" to-layer="64" to-port="0" />
		<edge from-layer="57" from-port="2" to-layer="59" to-port="0" />
		<edge from-layer="58" from-port="0" to-layer="59" to-port="1" />
		<edge from-layer="59" from-port="2" to-layer="61" to-port="0" />
		<edge from-layer="60" from-port="0" to-layer="61" to-port="1" />
		<edge from-layer="61" from-port="2" to-layer="74" to-port="0" />
		<edge from-layer="62" from-port="0" to-layer="67" to-port="0" />
		<edge from-layer="63" from-port="0" to-layer="64" to-port="1" />
		<edge from-layer="64" from-port="2" to-layer="66" to-port="0" />
		<edge from-layer="65" from-port="0" to-layer="66" to-port="1" />
		<edge from-layer="66" from-port="2" to-layer="67" to-port="1" />
		<edge from-layer="67" from-port="2" to-layer="69" to-port="0" />
		<edge from-layer="68" from-port="0" to-layer="69" to-port="1" />
		<edge from-layer="69" from-port="2" to-layer="71" to-port="0" />
		<edge from-layer="70" from-port="0" to-layer="71" to-port="1" />
		<edge from-layer="71" from-port="2" to-layer="73" to-port="0" />
		<edge from-layer="72" from-port="0" to-layer="73" to-port="1" />
		<edge from-layer="73" from-port="2" to-layer="74" to-port="1" />
		<edge from-layer="74" from-port="2" to-layer="76" to-port="0" />
		<edge from-layer="75" from-port="0" to-layer="76" to-port="1" />
		<edge from-layer="76" from-port="2" to-layer="77" to-port="1" />
		<edge from-layer="77" from-port="2" to-layer="79" to-port="0" />
		<edge from-layer="78" from-port="0" to-layer="79" to-port="1" />
		<edge from-layer="79" from-port="2" to-layer="81" to-port="0" />
		<edge from-layer="80" from-port="0" to-layer="81" to-port="1" />
		<edge from-layer="81" from-port="2" to-layer="83" to-port="0" />
		<edge from-layer="82" from-port="0" to-layer="83" to-port="1" />
		<edge from-layer="83" from-port="2" to-layer="84" to-port="1" />
		<edge from-layer="84" from-port="2" to-layer="86" to-port="0" />
		<edge from-layer="85" from-port="0" to-layer="86" to-port="1" />
		<edge from-layer="86" from-port="2" to-layer="88" to-port="0" />
		<edge from-layer="87" from-port="0" to-layer="88" to-port="1" />
		<edge from-layer="88" from-port="2" to-layer="90" to-port="0" />
		<edge from-layer="89" from-port="0" to-layer="90" to-port="1" />
		<edge from-layer="90" from-port="2" to-layer="94" to-port="0" />
		<edge from-layer="90" from-port="2" to-layer="112" to-port="0" />
		<edge from-layer="91" from-port="0" to-layer="105" to-port="0" />
		<edge from-layer="92" from-port="0" to-layer="95" to-port="0" />
		<edge from-layer="93" from-port="0" to-layer="94" to-port="1" />
		<edge from-layer="94" from-port="2" to-layer="95" to-port="1" />
		<edge from-layer="95" from-port="2" to-layer="97" to-port="0" />
		<edge from-layer="96" from-port="0" to-layer="97" to-port="1" />
		<edge from-layer="97" from-port="2" to-layer="99" to-port="0" />
		<edge from-layer="98" from-port="0" to-layer="99" to-port="1" />
		<edge from-layer="99" from-port="2" to-layer="101" to-port="0" />
		<edge from-layer="100" from-port="0" to-layer="101" to-port="1" />
		<edge from-layer="101" from-port="2" to-layer="102" to-port="0" />
		<edge from-layer="102" from-port="1" to-layer="104" to-port="0" />
		<edge from-layer="103" from-port="0" to-layer="104" to-port="1" />
		<edge from-layer="104" from-port="2" to-layer="105" to-port="1" />
		<edge from-layer="105" from-port="2" to-layer="107" to-port="0" />
		<edge from-layer="106" from-port="0" to-layer="107" to-port="1" />
		<edge from-layer="107" from-port="2" to-layer="109" to-port="0" />
		<edge from-layer="108" from-port="0" to-layer="109" to-port="1" />
		<edge from-layer="109" from-port="2" to-layer="111" to-port="0" />
		<edge from-layer="110" from-port="0" to-layer="111" to-port="1" />
		<edge from-layer="111" from-port="2" to-layer="112" to-port="1" />
		<edge from-layer="112" from-port="2" to-layer="114" to-port="0" />
		<edge from-layer="113" from-port="0" to-layer="114" to-port="1" />
		<edge from-layer="114" from-port="2" to-layer="116" to-port="0" />
		<edge from-layer="115" from-port="0" to-layer="116" to-port="1" />
		<edge from-layer="116" from-port="2" to-layer="118" to-port="0" />
		<edge from-layer="117" from-port="0" to-layer="118" to-port="1" />
		<edge from-layer="118" from-port="2" to-layer="122" to-port="0" />
		<edge from-layer="118" from-port="2" to-layer="136" to-port="0" />
		<edge from-layer="118" from-port="2" to-layer="154" to-port="0" />
		<edge from-layer="118" from-port="2" to-layer="193" to-port="0" />
		<edge from-layer="119" from-port="0" to-layer="186" to-port="0" />
		<edge from-layer="120" from-port="0" to-layer="123" to-port="0" />
		<edge from-layer="121" from-port="0" to-layer="122" to-port="1" />
		<edge from-layer="122" from-port="2" to-layer="123" to-port="1" />
		<edge from-layer="123" from-port="2" to-layer="125" to-port="0" />
		<edge from-layer="124" from-port="0" to-layer="125" to-port="1" />
		<edge from-layer="125" from-port="2" to-layer="127" to-port="0" />
		<edge from-layer="126" from-port="0" to-layer="127" to-port="1" />
		<edge from-layer="127" from-port="2" to-layer="129" to-port="0" />
		<edge from-layer="128" from-port="0" to-layer="129" to-port="1" />
		<edge from-layer="129" from-port="2" to-layer="131" to-port="0" />
		<edge from-layer="130" from-port="0" to-layer="131" to-port="1" />
		<edge from-layer="131" from-port="2" to-layer="133" to-port="0" />
		<edge from-layer="132" from-port="0" to-layer="133" to-port="1" />
		<edge from-layer="133" from-port="2" to-layer="150" to-port="0" />
		<edge from-layer="134" from-port="0" to-layer="137" to-port="0" />
		<edge from-layer="135" from-port="0" to-layer="136" to-port="1" />
		<edge from-layer="136" from-port="2" to-layer="137" to-port="1" />
		<edge from-layer="137" from-port="2" to-layer="139" to-port="0" />
		<edge from-layer="138" from-port="0" to-layer="139" to-port="1" />
		<edge from-layer="139" from-port="2" to-layer="141" to-port="0" />
		<edge from-layer="140" from-port="0" to-layer="141" to-port="1" />
		<edge from-layer="141" from-port="2" to-layer="143" to-port="0" />
		<edge from-layer="142" from-port="0" to-layer="143" to-port="1" />
		<edge from-layer="143" from-port="2" to-layer="145" to-port="0" />
		<edge from-layer="144" from-port="0" to-layer="145" to-port="1" />
		<edge from-layer="145" from-port="2" to-layer="147" to-port="0" />
		<edge from-layer="146" from-port="0" to-layer="147" to-port="1" />
		<edge from-layer="147" from-port="2" to-layer="149" to-port="0" />
		<edge from-layer="148" from-port="0" to-layer="149" to-port="1" />
		<edge from-layer="149" from-port="2" to-layer="150" to-port="1" />
		<edge from-layer="150" from-port="2" to-layer="151" to-port="0" />
		<edge from-layer="151" from-port="1" to-layer="166" to-port="0" />
		<edge from-layer="152" from-port="0" to-layer="155" to-port="0" />
		<edge from-layer="153" from-port="0" to-layer="154" to-port="1" />
		<edge from-layer="154" from-port="2" to-layer="155" to-port="1" />
		<edge from-layer="155" from-port="2" to-layer="157" to-port="0" />
		<edge from-layer="156" from-port="0" to-layer="157" to-port="1" />
		<edge from-layer="157" from-port="2" to-layer="159" to-port="0" />
		<edge from-layer="158" from-port="0" to-layer="159" to-port="1" />
		<edge from-layer="159" from-port="2" to-layer="161" to-port="0" />
		<edge from-layer="160" from-port="0" to-layer="161" to-port="1" />
		<edge from-layer="161" from-port="2" to-layer="163" to-port="0" />
		<edge from-layer="162" from-port="0" to-layer="163" to-port="1" />
		<edge from-layer="163" from-port="2" to-layer="165" to-port="0" />
		<edge from-layer="164" from-port="0" to-layer="165" to-port="1" />
		<edge from-layer="165" from-port="2" to-layer="166" to-port="1" />
		<edge from-layer="165" from-port="2" to-layer="173" to-port="0" />
		<edge from-layer="166" from-port="2" to-layer="168" to-port="0" />
		<edge from-layer="167" from-port="0" to-layer="168" to-port="1" />
		<edge from-layer="168" from-port="2" to-layer="170" to-port="0" />
		<edge from-layer="169" from-port="0" to-layer="170" to-port="1" />
		<edge from-layer="170" from-port="2" to-layer="183" to-port="0" />
		<edge from-layer="171" from-port="0" to-layer="176" to-port="0" />
		<edge from-layer="172" from-port="0" to-layer="173" to-port="1" />
		<edge from-layer="173" from-port="2" to-layer="175" to-port="0" />
		<edge from-layer="174" from-port="0" to-layer="175" to-port="1" />
		<edge from-layer="175" from-port="2" to-layer="176" to-port="1" />
		<edge from-layer="176" from-port="2" to-layer="178" to-port="0" />
		<edge from-layer="177" from-port="0" to-layer="178" to-port="1" />
		<edge from-layer="178" from-port="2" to-layer="180" to-port="0" />
		<edge from-layer="179" from-port="0" to-layer="180" to-port="1" />
		<edge from-layer="180" from-port="2" to-layer="182" to-port="0" />
		<edge from-layer="181" from-port="0" to-layer="182" to-port="1" />
		<edge from-layer="182" from-port="2" to-layer="183" to-port="1" />
		<edge from-layer="183" from-port="2" to-layer="185" to-port="0" />
		<edge from-layer="184" from-port="0" to-layer="185" to-port="1" />
		<edge from-layer="185" from-port="2" to-layer="186" to-port="1" />
		<edge from-layer="186" from-port="2" to-layer="188" to-port="0" />
		<edge from-layer="187" from-port="0" to-layer="188" to-port="1" />
		<edge from-layer="188" from-port="2" to-layer="190" to-port="0" />
		<edge from-layer="189" from-port="0" to-layer="190" to-port="1" />
		<edge from-layer="190" from-port="2" to-layer="192" to-port="0" />
		<edge from-layer="191" from-port="0" to-layer="192" to-port="1" />
		<edge from-layer="192" from-port="2" to-layer="193" to-port="1" />
		<edge from-layer="193" from-port="2" to-layer="195" to-port="0" />
		<edge from-layer="194" from-port="0" to-layer="195" to-port="1" />
		<edge from-layer="195" from-port="2" to-layer="197" to-port="0" />
		<edge from-layer="196" from-port="0" to-layer="197" to-port="1" />
		<edge from-layer="197" from-port="2" to-layer="199" to-port="0" />
		<edge from-layer="198" from-port="0" to-layer="199" to-port="1" />
		<edge from-layer="199" from-port="2" to-layer="221" to-port="0" />
		<edge from-layer="199" from-port="2" to-layer="203" to-port="0" />
		<edge from-layer="200" from-port="0" to-layer="214" to-port="0" />
		<edge from-layer="201" from-port="0" to-layer="204" to-port="0" />
		<edge from-layer="202" from-port="0" to-layer="203" to-port="1" />
		<edge from-layer="203" from-port="2" to-layer="204" to-port="1" />
		<edge from-layer="204" from-port="2" to-layer="206" to-port="0" />
		<edge from-layer="205" from-port="0" to-layer="206" to-port="1" />
		<edge from-layer="206" from-port="2" to-layer="208" to-port="0" />
		<edge from-layer="207" from-port="0" to-layer="208" to-port="1" />
		<edge from-layer="208" from-port="2" to-layer="210" to-port="0" />
		<edge from-layer="209" from-port="0" to-layer="210" to-port="1" />
		<edge from-layer="210" from-port="2" to-layer="211" to-port="0" />
		<edge from-layer="211" from-port="1" to-layer="213" to-port="0" />
		<edge from-layer="212" from-port="0" to-layer="213" to-port="1" />
		<edge from-layer="213" from-port="2" to-layer="214" to-port="1" />
		<edge from-layer="214" from-port="2" to-layer="216" to-port="0" />
		<edge from-layer="215" from-port="0" to-layer="216" to-port="1" />
		<edge from-layer="216" from-port="2" to-layer="218" to-port="0" />
		<edge from-layer="217" from-port="0" to-layer="218" to-port="1" />
		<edge from-layer="218" from-port="2" to-layer="220" to-port="0" />
		<edge from-layer="219" from-port="0" to-layer="220" to-port="1" />
		<edge from-layer="220" from-port="2" to-layer="221" to-port="1" />
		<edge from-layer="221" from-port="2" to-layer="223" to-port="0" />
		<edge from-layer="222" from-port="0" to-layer="223" to-port="1" />
		<edge from-layer="223" from-port="2" to-layer="225" to-port="0" />
		<edge from-layer="224" from-port="0" to-layer="225" to-port="1" />
		<edge from-layer="225" from-port="2" to-layer="227" to-port="0" />
		<edge from-layer="226" from-port="0" to-layer="227" to-port="1" />
		<edge from-layer="227" from-port="2" to-layer="231" to-port="0" />
		<edge from-layer="227" from-port="2" to-layer="263" to-port="0" />
		<edge from-layer="227" from-port="2" to-layer="302" to-port="0" />
		<edge from-layer="227" from-port="2" to-layer="245" to-port="0" />
		<edge from-layer="228" from-port="0" to-layer="295" to-port="0" />
		<edge from-layer="229" from-port="0" to-layer="232" to-port="0" />
		<edge from-layer="230" from-port="0" to-layer="231" to-port="1" />
		<edge from-layer="231" from-port="2" to-layer="232" to-port="1" />
		<edge from-layer="232" from-port="2" to-layer="234" to-port="0" />
		<edge from-layer="233" from-port="0" to-layer="234" to-port="1" />
		<edge from-layer="234" from-port="2" to-layer="236" to-port="0" />
		<edge from-layer="235" from-port="0" to-layer="236" to-port="1" />
		<edge from-layer="236" from-port="2" to-layer="238" to-port="0" />
		<edge from-layer="237" from-port="0" to-layer="238" to-port="1" />
		<edge from-layer="238" from-port="2" to-layer="240" to-port="0" />
		<edge from-layer="239" from-port="0" to-layer="240" to-port="1" />
		<edge from-layer="240" from-port="2" to-layer="242" to-port="0" />
		<edge from-layer="241" from-port="0" to-layer="242" to-port="1" />
		<edge from-layer="242" from-port="2" to-layer="259" to-port="0" />
		<edge from-layer="243" from-port="0" to-layer="246" to-port="0" />
		<edge from-layer="244" from-port="0" to-layer="245" to-port="1" />
		<edge from-layer="245" from-port="2" to-layer="246" to-port="1" />
		<edge from-layer="246" from-port="2" to-layer="248" to-port="0" />
		<edge from-layer="247" from-port="0" to-layer="248" to-port="1" />
		<edge from-layer="248" from-port="2" to-layer="250" to-port="0" />
		<edge from-layer="249" from-port="0" to-layer="250" to-port="1" />
		<edge from-layer="250" from-port="2" to-layer="252" to-port="0" />
		<edge from-layer="251" from-port="0" to-layer="252" to-port="1" />
		<edge from-layer="252" from-port="2" to-layer="254" to-port="0" />
		<edge from-layer="253" from-port="0" to-layer="254" to-port="1" />
		<edge from-layer="254" from-port="2" to-layer="256" to-port="0" />
		<edge from-layer="255" from-port="0" to-layer="256" to-port="1" />
		<edge from-layer="256" from-port="2" to-layer="258" to-port="0" />
		<edge from-layer="257" from-port="0" to-layer="258" to-port="1" />
		<edge from-layer="258" from-port="2" to-layer="259" to-port="1" />
		<edge from-layer="259" from-port="2" to-layer="260" to-port="0" />
		<edge from-layer="260" from-port="1" to-layer="275" to-port="0" />
		<edge from-layer="261" from-port="0" to-layer="264" to-port="0" />
		<edge from-layer="262" from-port="0" to-layer="263" to-port="1" />
		<edge from-layer="263" from-port="2" to-layer="264" to-port="1" />
		<edge from-layer="264" from-port="2" to-layer="266" to-port="0" />
		<edge from-layer="265" from-port="0" to-layer="266" to-port="1" />
		<edge from-layer="266" from-port="2" to-layer="268" to-port="0" />
		<edge from-layer="267" from-port="0" to-layer="268" to-port="1" />
		<edge from-layer="268" from-port="2" to-layer="270" to-port="0" />
		<edge from-layer="269" from-port="0" to-layer="270" to-port="1" />
		<edge from-layer="270" from-port="2" to-layer="272" to-port="0" />
		<edge from-layer="271" from-port="0" to-layer="272" to-port="1" />
		<edge from-layer="272" from-port="2" to-layer="274" to-port="0" />
		<edge from-layer="273" from-port="0" to-layer="274" to-port="1" />
		<edge from-layer="274" from-port="2" to-layer="282" to-port="0" />
		<edge from-layer="274" from-port="2" to-layer="275" to-port="1" />
		<edge from-layer="275" from-port="2" to-layer="277" to-port="0" />
		<edge from-layer="276" from-port="0" to-layer="277" to-port="1" />
		<edge from-layer="277" from-port="2" to-layer="279" to-port="0" />
		<edge from-layer="278" from-port="0" to-layer="279" to-port="1" />
		<edge from-layer="279" from-port="2" to-layer="292" to-port="0" />
		<edge from-layer="280" from-port="0" to-layer="285" to-port="0" />
		<edge from-layer="281" from-port="0" to-layer="282" to-port="1" />
		<edge from-layer="282" from-port="2" to-layer="284" to-port="0" />
		<edge from-layer="283" from-port="0" to-layer="284" to-port="1" />
		<edge from-layer="284" from-port="2" to-layer="285" to-port="1" />
		<edge from-layer="285" from-port="2" to-layer="287" to-port="0" />
		<edge from-layer="286" from-port="0" to-layer="287" to-port="1" />
		<edge from-layer="287" from-port="2" to-layer="289" to-port="0" />
		<edge from-layer="288" from-port="0" to-layer="289" to-port="1" />
		<edge from-layer="289" from-port="2" to-layer="291" to-port="0" />
		<edge from-layer="290" from-port="0" to-layer="291" to-port="1" />
		<edge from-layer="291" from-port="2" to-layer="292" to-port="1" />
		<edge from-layer="292" from-port="2" to-layer="294" to-port="0" />
		<edge from-layer="293" from-port="0" to-layer="294" to-port="1" />
		<edge from-layer="294" from-port="2" to-layer="295" to-port="1" />
		<edge from-layer="295" from-port="2" to-layer="297" to-port="0" />
		<edge from-layer="296" from-port="0" to-layer="297" to-port="1" />
		<edge from-layer="297" from-port="2" to-layer="299" to-port="0" />
		<edge from-layer="298" from-port="0" to-layer="299" to-port="1" />
		<edge from-layer="299" from-port="2" to-layer="301" to-port="0" />
		<edge from-layer="300" from-port="0" to-layer="301" to-port="1" />
		<edge from-layer="301" from-port="2" to-layer="302" to-port="1" />
		<edge from-layer="302" from-port="2" to-layer="304" to-port="0" />
		<edge from-layer="303" from-port="0" to-layer="304" to-port="1" />
		<edge from-layer="304" from-port="2" to-layer="306" to-port="0" />
		<edge from-layer="305" from-port="0" to-layer="306" to-port="1" />
		<edge from-layer="306" from-port="2" to-layer="308" to-port="0" />
		<edge from-layer="307" from-port="0" to-layer="308" to-port="1" />
		<edge from-layer="308" from-port="2" to-layer="330" to-port="0" />
		<edge from-layer="308" from-port="2" to-layer="312" to-port="0" />
		<edge from-layer="309" from-port="0" to-layer="323" to-port="0" />
		<edge from-layer="310" from-port="0" to-layer="313" to-port="0" />
		<edge from-layer="311" from-port="0" to-layer="312" to-port="1" />
		<edge from-layer="312" from-port="2" to-layer="313" to-port="1" />
		<edge from-layer="313" from-port="2" to-layer="315" to-port="0" />
		<edge from-layer="314" from-port="0" to-layer="315" to-port="1" />
		<edge from-layer="315" from-port="2" to-layer="317" to-port="0" />
		<edge from-layer="316" from-port="0" to-layer="317" to-port="1" />
		<edge from-layer="317" from-port="2" to-layer="319" to-port="0" />
		<edge from-layer="318" from-port="0" to-layer="319" to-port="1" />
		<edge from-layer="319" from-port="2" to-layer="320" to-port="0" />
		<edge from-layer="320" from-port="1" to-layer="322" to-port="0" />
		<edge from-layer="321" from-port="0" to-layer="322" to-port="1" />
		<edge from-layer="322" from-port="2" to-layer="323" to-port="1" />
		<edge from-layer="323" from-port="2" to-layer="325" to-port="0" />
		<edge from-layer="324" from-port="0" to-layer="325" to-port="1" />
		<edge from-layer="325" from-port="2" to-layer="327" to-port="0" />
		<edge from-layer="326" from-port="0" to-layer="327" to-port="1" />
		<edge from-layer="327" from-port="2" to-layer="329" to-port="0" />
		<edge from-layer="328" from-port="0" to-layer="329" to-port="1" />
		<edge from-layer="329" from-port="2" to-layer="330" to-port="1" />
		<edge from-layer="330" from-port="2" to-layer="332" to-port="0" />
		<edge from-layer="331" from-port="0" to-layer="332" to-port="1" />
		<edge from-layer="332" from-port="2" to-layer="334" to-port="0" />
		<edge from-layer="333" from-port="0" to-layer="334" to-port="1" />
		<edge from-layer="334" from-port="2" to-layer="336" to-port="0" />
		<edge from-layer="335" from-port="0" to-layer="336" to-port="1" />
		<edge from-layer="336" from-port="2" to-layer="338" to-port="0" />
		<edge from-layer="336" from-port="2" to-layer="490" to-port="0" />
		<edge from-layer="336" from-port="2" to-layer="402" to-port="0" />
		<edge from-layer="336" from-port="2" to-layer="472" to-port="0" />
		<edge from-layer="337" from-port="0" to-layer="338" to-port="1" />
		<edge from-layer="338" from-port="2" to-layer="340" to-port="0" />
		<edge from-layer="339" from-port="0" to-layer="340" to-port="1" />
		<edge from-layer="340" from-port="2" to-layer="341" to-port="0" />
		<edge from-layer="341" from-port="1" to-layer="343" to-port="0" />
		<edge from-layer="341" from-port="1" to-layer="361" to-port="1" />
		<edge from-layer="342" from-port="0" to-layer="343" to-port="1" />
		<edge from-layer="343" from-port="2" to-layer="344" to-port="1" />
		<edge from-layer="344" from-port="2" to-layer="346" to-port="0" />
		<edge from-layer="345" from-port="0" to-layer="346" to-port="1" />
		<edge from-layer="346" from-port="2" to-layer="348" to-port="0" />
		<edge from-layer="347" from-port="0" to-layer="348" to-port="1" />
		<edge from-layer="348" from-port="2" to-layer="350" to-port="0" />
		<edge from-layer="349" from-port="0" to-layer="350" to-port="1" />
		<edge from-layer="350" from-port="2" to-layer="351" to-port="0" />
		<edge from-layer="351" from-port="1" to-layer="353" to-port="0" />
		<edge from-layer="352" from-port="0" to-layer="353" to-port="1" />
		<edge from-layer="353" from-port="2" to-layer="354" to-port="1" />
		<edge from-layer="354" from-port="2" to-layer="356" to-port="0" />
		<edge from-layer="355" from-port="0" to-layer="356" to-port="1" />
		<edge from-layer="356" from-port="2" to-layer="358" to-port="0" />
		<edge from-layer="357" from-port="0" to-layer="358" to-port="1" />
		<edge from-layer="358" from-port="2" to-layer="360" to-port="0" />
		<edge from-layer="359" from-port="0" to-layer="360" to-port="1" />
		<edge from-layer="360" from-port="2" to-layer="361" to-port="0" />
		<edge from-layer="361" from-port="2" to-layer="363" to-port="0" />
		<edge from-layer="362" from-port="0" to-layer="363" to-port="1" />
		<edge from-layer="363" from-port="2" to-layer="365" to-port="0" />
		<edge from-layer="364" from-port="0" to-layer="365" to-port="1" />
		<edge from-layer="365" from-port="2" to-layer="367" to-port="0" />
		<edge from-layer="366" from-port="0" to-layer="367" to-port="1" />
		<edge from-layer="367" from-port="2" to-layer="368" to-port="0" />
		<edge from-layer="368" from-port="1" to-layer="370" to-port="0" />
		<edge from-layer="368" from-port="1" to-layer="388" to-port="1" />
		<edge from-layer="369" from-port="0" to-layer="370" to-port="1" />
		<edge from-layer="370" from-port="2" to-layer="371" to-port="1" />
		<edge from-layer="371" from-port="2" to-layer="373" to-port="0" />
		<edge from-layer="372" from-port="0" to-layer="373" to-port="1" />
		<edge from-layer="373" from-port="2" to-layer="375" to-port="0" />
		<edge from-layer="374" from-port="0" to-layer="375" to-port="1" />
		<edge from-layer="375" from-port="2" to-layer="377" to-port="0" />
		<edge from-layer="376" from-port="0" to-layer="377" to-port="1" />
		<edge from-layer="377" from-port="2" to-layer="378" to-port="0" />
		<edge from-layer="378" from-port="1" to-layer="380" to-port="0" />
		<edge from-layer="379" from-port="0" to-layer="380" to-port="1" />
		<edge from-layer="380" from-port="2" to-layer="381" to-port="1" />
		<edge from-layer="381" from-port="2" to-layer="383" to-port="0" />
		<edge from-layer="382" from-port="0" to-layer="383" to-port="1" />
		<edge from-layer="383" from-port="2" to-layer="385" to-port="0" />
		<edge from-layer="384" from-port="0" to-layer="385" to-port="1" />
		<edge from-layer="385" from-port="2" to-layer="387" to-port="0" />
		<edge from-layer="386" from-port="0" to-layer="387" to-port="1" />
		<edge from-layer="387" from-port="2" to-layer="388" to-port="0" />
		<edge from-layer="388" from-port="2" to-layer="390" to-port="0" />
		<edge from-layer="389" from-port="0" to-layer="390" to-port="1" />
		<edge from-layer="390" from-port="2" to-layer="392" to-port="0" />
		<edge from-layer="391" from-port="0" to-layer="392" to-port="1" />
		<edge from-layer="392" from-port="2" to-layer="394" to-port="0" />
		<edge from-layer="393" from-port="0" to-layer="394" to-port="1" />
		<edge from-layer="394" from-port="2" to-layer="395" to-port="0" />
		<edge from-layer="395" from-port="1" to-layer="397" to-port="0" />
		<edge from-layer="396" from-port="0" to-layer="397" to-port="1" />
		<edge from-layer="397" from-port="2" to-layer="398" to-port="1" />
		<edge from-layer="398" from-port="2" to-layer="531" to-port="0" />
		<edge from-layer="399" from-port="0" to-layer="412" to-port="0" />
		<edge from-layer="400" from-port="0" to-layer="408" to-port="0" />
		<edge from-layer="401" from-port="0" to-layer="402" to-port="1" />
		<edge from-layer="402" from-port="2" to-layer="404" to-port="0" />
		<edge from-layer="403" from-port="0" to-layer="404" to-port="1" />
		<edge from-layer="404" from-port="2" to-layer="405" to-port="0" />
		<edge from-layer="405" from-port="1" to-layer="407" to-port="0" />
		<edge from-layer="406" from-port="0" to-layer="407" to-port="1" />
		<edge from-layer="407" from-port="2" to-layer="408" to-port="1" />
		<edge from-layer="408" from-port="2" to-layer="409" to-port="0" />
		<edge from-layer="409" from-port="1" to-layer="411" to-port="0" />
		<edge from-layer="410" from-port="0" to-layer="411" to-port="1" />
		<edge from-layer="411" from-port="2" to-layer="412" to-port="1" />
		<edge from-layer="412" from-port="2" to-layer="424" to-port="0" />
		<edge from-layer="412" from-port="2" to-layer="414" to-port="0" />
		<edge from-layer="413" from-port="0" to-layer="414" to-port="1" />
		<edge from-layer="414" from-port="2" to-layer="423" to-port="0" />
		<edge from-layer="414" from-port="2" to-layer="430" to-port="0" />
		<edge from-layer="414" from-port="2" to-layer="415" to-port="0" />
		<edge from-layer="415" from-port="1" to-layer="417" to-port="0" />
		<edge from-layer="416" from-port="0" to-layer="417" to-port="1" />
		<edge from-layer="417" from-port="2" to-layer="419" to-port="0" />
		<edge from-layer="417" from-port="2" to-layer="421" to-port="1" />
		<edge from-layer="418" from-port="0" to-layer="419" to-port="1" />
		<edge from-layer="419" from-port="2" to-layer="429" to-port="0" />
		<edge from-layer="420" from-port="0" to-layer="421" to-port="0" />
		<edge from-layer="421" from-port="2" to-layer="428" to-port="0" />
		<edge from-layer="422" from-port="0" to-layer="423" to-port="1" />
		<edge from-layer="423" from-port="2" to-layer="424" to-port="1" />
		<edge from-layer="424" from-port="2" to-layer="426" to-port="0" />
		<edge from-layer="424" from-port="2" to-layer="443" to-port="0" />
		<edge from-layer="424" from-port="2" to-layer="436" to-port="0" />
		<edge from-layer="424" from-port="2" to-layer="452" to-port="0" />
		<edge from-layer="425" from-port="0" to-layer="426" to-port="1" />
		<edge from-layer="426" from-port="2" to-layer="427" to-port="0" />
		<edge from-layer="426" from-port="2" to-layer="427" to-port="1" />
		<edge from-layer="427" from-port="2" to-layer="428" to-port="1" />
		<edge from-layer="428" from-port="2" to-layer="429" to-port="1" />
		<edge from-layer="429" from-port="2" to-layer="468" to-port="0" />
		<edge from-layer="430" from-port="1" to-layer="432" to-port="0" />
		<edge from-layer="431" from-port="0" to-layer="432" to-port="1" />
		<edge from-layer="432" from-port="2" to-layer="467" to-port="0" />
		<edge from-layer="433" from-port="0" to-layer="446" to-port="0" />
		<edge from-layer="434" from-port="0" to-layer="436" to-port="1" />
		<edge from-layer="435" from-port="0" to-layer="436" to-port="2" />
		<edge from-layer="436" from-port="3" to-layer="438" to-port="0" />
		<edge from-layer="437" from-port="0" to-layer="438" to-port="1" />
		<edge from-layer="438" from-port="2" to-layer="440" to-port="0" />
		<edge from-layer="438" from-port="2" to-layer="457" to-port="0" />
		<edge from-layer="439" from-port="0" to-layer="440" to-port="1" />
		<edge from-layer="440" from-port="2" to-layer="446" to-port="1" />
		<edge from-layer="441" from-port="0" to-layer="443" to-port="1" />
		<edge from-layer="441" from-port="0" to-layer="500" to-port="1" />
		<edge from-layer="442" from-port="0" to-layer="443" to-port="2" />
		<edge from-layer="443" from-port="3" to-layer="445" to-port="0" />
		<edge from-layer="444" from-port="0" to-layer="445" to-port="1" />
		<edge from-layer="445" from-port="2" to-layer="446" to-port="2" />
		<edge from-layer="445" from-port="2" to-layer="461" to-port="0" />
		<edge from-layer="446" from-port="3" to-layer="448" to-port="0" />
		<edge from-layer="447" from-port="0" to-layer="448" to-port="1" />
		<edge from-layer="448" from-port="2" to-layer="466" to-port="0" />
		<edge from-layer="449" from-port="0" to-layer="457" to-port="1" />
		<edge from-layer="450" from-port="0" to-layer="452" to-port="1" />
		<edge from-layer="450" from-port="0" to-layer="508" to-port="1" />
		<edge from-layer="451" from-port="0" to-layer="452" to-port="2" />
		<edge from-layer="452" from-port="3" to-layer="454" to-port="0" />
		<edge from-layer="453" from-port="0" to-layer="454" to-port="1" />
		<edge from-layer="454" from-port="2" to-layer="463" to-port="1" />
		<edge from-layer="454" from-port="2" to-layer="456" to-port="0" />
		<edge from-layer="455" from-port="0" to-layer="456" to-port="1" />
		<edge from-layer="456" from-port="2" to-layer="457" to-port="2" />
		<edge from-layer="457" from-port="3" to-layer="459" to-port="0" />
		<edge from-layer="458" from-port="0" to-layer="459" to-port="1" />
		<edge from-layer="459" from-port="2" to-layer="466" to-port="1" />
		<edge from-layer="460" from-port="0" to-layer="461" to-port="1" />
		<edge from-layer="461" from-port="2" to-layer="463" to-port="0" />
		<edge from-layer="462" from-port="0" to-layer="463" to-port="2" />
		<edge from-layer="463" from-port="3" to-layer="465" to-port="0" />
		<edge from-layer="464" from-port="0" to-layer="465" to-port="1" />
		<edge from-layer="465" from-port="2" to-layer="466" to-port="2" />
		<edge from-layer="466" from-port="3" to-layer="467" to-port="1" />
		<edge from-layer="467" from-port="2" to-layer="468" to-port="1" />
		<edge from-layer="468" from-port="2" to-layer="528" to-port="0" />
		<edge from-layer="469" from-port="0" to-layer="482" to-port="0" />
		<edge from-layer="470" from-port="0" to-layer="478" to-port="0" />
		<edge from-layer="471" from-port="0" to-layer="472" to-port="1" />
		<edge from-layer="472" from-port="2" to-layer="474" to-port="0" />
		<edge from-layer="473" from-port="0" to-layer="474" to-port="1" />
		<edge from-layer="474" from-port="2" to-layer="475" to-port="0" />
		<edge from-layer="475" from-port="1" to-layer="477" to-port="0" />
		<edge from-layer="476" from-port="0" to-layer="477" to-port="1" />
		<edge from-layer="477" from-port="2" to-layer="478" to-port="1" />
		<edge from-layer="478" from-port="2" to-layer="479" to-port="0" />
		<edge from-layer="479" from-port="1" to-layer="481" to-port="0" />
		<edge from-layer="480" from-port="0" to-layer="481" to-port="1" />
		<edge from-layer="481" from-port="2" to-layer="482" to-port="1" />
		<edge from-layer="482" from-port="2" to-layer="483" to-port="0" />
		<edge from-layer="483" from-port="1" to-layer="485" to-port="0" />
		<edge from-layer="484" from-port="0" to-layer="485" to-port="1" />
		<edge from-layer="485" from-port="2" to-layer="487" to-port="0" />
		<edge from-layer="486" from-port="0" to-layer="487" to-port="1" />
		<edge from-layer="487" from-port="2" to-layer="506" to-port="0" />
		<edge from-layer="487" from-port="2" to-layer="522" to-port="0" />
		<edge from-layer="488" from-port="0" to-layer="496" to-port="0" />
		<edge from-layer="489" from-port="0" to-layer="490" to-port="1" />
		<edge from-layer="490" from-port="2" to-layer="492" to-port="0" />
		<edge from-layer="491" from-port="0" to-layer="492" to-port="1" />
		<edge from-layer="492" from-port="2" to-layer="493" to-port="0" />
		<edge from-layer="493" from-port="1" to-layer="495" to-port="0" />
		<edge from-layer="494" from-port="0" to-layer="495" to-port="1" />
		<edge from-layer="495" from-port="2" to-layer="496" to-port="1" />
		<edge from-layer="496" from-port="2" to-layer="498" to-port="0" />
		<edge from-layer="497" from-port="0" to-layer="498" to-port="1" />
		<edge from-layer="498" from-port="2" to-layer="508" to-port="0" />
		<edge from-layer="498" from-port="2" to-layer="500" to-port="0" />
		<edge from-layer="499" from-port="0" to-layer="500" to-port="2" />
		<edge from-layer="500" from-port="3" to-layer="502" to-port="0" />
		<edge from-layer="501" from-port="0" to-layer="502" to-port="1" />
		<edge from-layer="502" from-port="2" to-layer="504" to-port="0" />
		<edge from-layer="503" from-port="0" to-layer="504" to-port="1" />
		<edge from-layer="504" from-port="2" to-layer="505" to-port="0" />
		<edge from-layer="504" from-port="2" to-layer="521" to-port="0" />
		<edge from-layer="505" from-port="1" to-layer="506" to-port="1" />
		<edge from-layer="506" from-port="2" to-layer="514" to-port="0" />
		<edge from-layer="506" from-port="2" to-layer="518" to-port="0" />
		<edge from-layer="507" from-port="0" to-layer="508" to-port="2" />
		<edge from-layer="508" from-port="3" to-layer="510" to-port="0" />
		<edge from-layer="509" from-port="0" to-layer="510" to-port="1" />
		<edge from-layer="510" from-port="2" to-layer="512" to-port="0" />
		<edge from-layer="511" from-port="0" to-layer="512" to-port="1" />
		<edge from-layer="512" from-port="2" to-layer="517" to-port="0" />
		<edge from-layer="512" from-port="2" to-layer="513" to-port="0" />
		<edge from-layer="513" from-port="1" to-layer="514" to-port="1" />
		<edge from-layer="514" from-port="2" to-layer="516" to-port="0" />
		<edge from-layer="515" from-port="0" to-layer="516" to-port="1" />
		<edge from-layer="516" from-port="2" to-layer="525" to-port="0" />
		<edge from-layer="517" from-port="1" to-layer="518" to-port="1" />
		<edge from-layer="518" from-port="2" to-layer="520" to-port="0" />
		<edge from-layer="519" from-port="0" to-layer="520" to-port="1" />
		<edge from-layer="520" from-port="2" to-layer="525" to-port="1" />
		<edge from-layer="521" from-port="1" to-layer="522" to-port="1" />
		<edge from-layer="522" from-port="2" to-layer="524" to-port="0" />
		<edge from-layer="523" from-port="0" to-layer="524" to-port="1" />
		<edge from-layer="524" from-port="2" to-layer="525" to-port="2" />
		<edge from-layer="525" from-port="3" to-layer="527" to-port="0" />
		<edge from-layer="526" from-port="0" to-layer="527" to-port="1" />
		<edge from-layer="527" from-port="2" to-layer="528" to-port="1" />
		<edge from-layer="528" from-port="2" to-layer="530" to-port="0" />
		<edge from-layer="529" from-port="0" to-layer="530" to-port="1" />
		<edge from-layer="530" from-port="2" to-layer="531" to-port="1" />
		<edge from-layer="531" from-port="2" to-layer="532" to-port="0" />
	</edges>
	<rt_info>
		<Runtime_version value="2024.6.0-17404-4c0f47d2335-releases/2024/6" />
		<conversion_parameters>
			<input_model value="DIR\pred_model.onnx" />
			<is_python_object value="False" />
		</conversion_parameters>
	</rt_info>
</net>
